<?xml version="1.0"?>
<net name="runtime_gpu_graph" version="11">
	<layers>
		<layer id="0" name="state_update_mode" type="Input">
			<data shape="1" element_type="i32" execOrder="0" execTimeMcs="not_executed" originalLayersNames="state_update_mode" outputLayouts="bfyx" outputPrecisions="i32" primitiveType="wait_for_events__i32" runtimePrecision="i32" />
			<output>
				<port id="0" precision="I32">
					<dim>1</dim>
				</port>
			</output>
		</layer>
		<layer id="1" name="position_ids" type="Input">
			<data shape="3,?,?" element_type="i64" execOrder="1" execTimeMcs="not_executed" originalLayersNames="position_ids" outputLayouts="bfyx" outputPrecisions="i64" primitiveType="wait_for_events__i64" runtimePrecision="i64" />
			<output>
				<port id="0" precision="I64">
					<dim>3</dim>
					<dim>-1</dim>
					<dim>-1</dim>
				</port>
			</output>
		</layer>
		<layer id="2" name="input_ids" type="Input">
			<data shape="?,?" element_type="i64" execOrder="3" execTimeMcs="not_executed" originalLayersNames="input_ids" outputLayouts="bfyx" outputPrecisions="i64" primitiveType="wait_for_events__i64" runtimePrecision="i64" />
			<output>
				<port id="0" precision="I64">
					<dim>-1</dim>
					<dim>-1</dim>
				</port>
			</output>
		</layer>
		<layer id="3" name="beam_idx" type="Input">
			<data shape="?" element_type="i32" execOrder="6" execTimeMcs="not_executed" originalLayersNames="beam_idx" outputLayouts="bfyx" outputPrecisions="i32" primitiveType="wait_for_events__i32" runtimePrecision="i32" />
			<output>
				<port id="0" precision="I32">
					<dim>-1</dim>
				</port>
			</output>
		</layer>
		<layer id="4" name="attention_mask" type="Input">
			<data shape="?,?" element_type="i64" execOrder="7" execTimeMcs="not_executed" originalLayersNames="attention_mask" outputLayouts="bfyx" outputPrecisions="i64" primitiveType="wait_for_events__i64" runtimePrecision="i64" />
			<output>
				<port id="0" precision="I64">
					<dim>-1</dim>
					<dim>-1</dim>
				</port>
			</output>
		</layer>
		<layer id="5" name="Convert_4461" type="Reorder">
			<data execOrder="4" execTimeMcs="not_executed" originalLayersNames="Convert_4461" outputLayouts="bfyx" outputPrecisions="i32" primitiveType="reorder_data__i64" runtimePrecision="i64" />
			<input>
				<port id="0" precision="I64">
					<dim>-1</dim>
					<dim>-1</dim>
				</port>
			</input>
			<output>
				<port id="1" precision="I32">
					<dim>-1</dim>
					<dim>-1</dim>
				</port>
				<port id="2" precision="I32">
					<dim>-1</dim>
					<dim>-1</dim>
				</port>
			</output>
		</layer>
		<layer id="6" name="Gather_4463" type="Gather">
			<data execOrder="199" execTimeMcs="not_executed" originalLayersNames="Gather_4463,Multiply_97256" outputLayouts="bfyx" outputPrecisions="f16" primitiveType="gather_ref__u8" runtimePrecision="u8" />
			<input>
				<port id="0" precision="I32">
					<dim>-1</dim>
					<dim>-1</dim>
				</port>
			</input>
			<output>
				<port id="1" precision="FP16">
					<dim>-1</dim>
					<dim>-1</dim>
					<dim>2560</dim>
				</port>
				<port id="2" precision="FP16">
					<dim>-1</dim>
					<dim>-1</dim>
					<dim>2560</dim>
				</port>
			</output>
		</layer>
		<layer id="7" name="Convert_78036" type="Reorder">
			<data execOrder="8" execTimeMcs="not_executed" originalLayersNames="Convert_78036" outputLayouts="bfyx" outputPrecisions="i32" primitiveType="reorder_data__i64" runtimePrecision="i64" />
			<input>
				<port id="0" precision="I64">
					<dim>-1</dim>
					<dim>-1</dim>
				</port>
			</input>
			<output>
				<port id="1" precision="I32">
					<dim>-1</dim>
					<dim>-1</dim>
				</port>
				<port id="2" precision="I32">
					<dim>-1</dim>
					<dim>-1</dim>
				</port>
			</output>
		</layer>
		<layer id="8" name="ShapeOf_65900" type="shape_of">
			<data execOrder="9" execTimeMcs="not_executed" originalLayersNames="ShapeOf_65900" outputLayouts="bfyx" outputPrecisions="i32" primitiveType="shape_of_cpu_impl__i32" runtimePrecision="i32" />
			<input>
				<port id="0" precision="I32">
					<dim>-1</dim>
					<dim>-1</dim>
				</port>
			</input>
			<output>
				<port id="1" precision="I32">
					<dim>2</dim>
				</port>
			</output>
		</layer>
		<layer id="9" name="Gather_65903" type="Gather">
			<data execOrder="101" execTimeMcs="not_executed" originalLayersNames="Gather_65903" outputLayouts="bfyx" outputPrecisions="i32" primitiveType="gather_cpu_impl__i32" runtimePrecision="i32" />
			<input>
				<port id="0" precision="I32">
					<dim>2</dim>
				</port>
			</input>
			<output>
				<port id="1" precision="I32">
					<dim>1</dim>
				</port>
				<port id="2" precision="I32">
					<dim>1</dim>
				</port>
				<port id="3" precision="I32">
					<dim>1</dim>
				</port>
			</output>
		</layer>
		<layer id="10" name="ShapeOf_65906" type="shape_of">
			<data execOrder="5" execTimeMcs="not_executed" originalLayersNames="ShapeOf_65906" outputLayouts="bfyx" outputPrecisions="i32" primitiveType="shape_of_cpu_impl__i32" runtimePrecision="i32" />
			<input>
				<port id="0" precision="I32">
					<dim>-1</dim>
					<dim>-1</dim>
				</port>
			</input>
			<output>
				<port id="1" precision="I32">
					<dim>2</dim>
				</port>
			</output>
		</layer>
		<layer id="11" name="Gather_65909" type="Gather">
			<data execOrder="97" execTimeMcs="not_executed" originalLayersNames="Gather_65909" outputLayouts="bfyx" outputPrecisions="i32" primitiveType="gather_cpu_impl__i32" runtimePrecision="i32" />
			<input>
				<port id="0" precision="I32">
					<dim>2</dim>
				</port>
			</input>
			<output>
				<port id="1" precision="I32">
					<dim>1</dim>
				</port>
				<port id="2" precision="I32">
					<dim>1</dim>
				</port>
			</output>
		</layer>
		<layer id="12" name="Multiply_95746" type="Eltwise">
			<data execOrder="100" execTimeMcs="not_executed" originalLayersNames="Multiply_95746" outputLayouts="bfyx" outputPrecisions="i32" primitiveType="eltwise_cpu_impl__i32" runtimePrecision="i32" />
			<input>
				<port id="0" precision="I32">
					<dim>1</dim>
				</port>
			</input>
			<output>
				<port id="1" precision="I32">
					<dim>1</dim>
				</port>
			</output>
		</layer>
		<layer id="13" name="Subtract_4799" type="Eltwise">
			<data execOrder="105" execTimeMcs="not_executed" originalLayersNames="Subtract_4799" outputLayouts="bfyx" outputPrecisions="i32" primitiveType="eltwise_cpu_impl__i32" runtimePrecision="i32" />
			<input>
				<port id="0" precision="I32">
					<dim>1</dim>
				</port>
				<port id="1" precision="I32">
					<dim>1</dim>
				</port>
			</input>
			<output>
				<port id="2" precision="I32">
					<dim>1</dim>
				</port>
			</output>
		</layer>
		<layer id="14" name="ScatterUpdate_49275" type="scatter_update">
			<data execOrder="147" execTimeMcs="not_executed" originalLayersNames="ScatterUpdate_49275" outputLayouts="bfyx" outputPrecisions="i32" primitiveType="scatter_update_cpu_impl__i32" runtimePrecision="i32" />
			<input>
				<port id="0" precision="I32">
					<dim>1</dim>
				</port>
			</input>
			<output>
				<port id="1" precision="I32">
					<dim>2</dim>
				</port>
			</output>
		</layer>
		<layer id="15" name="ScatterUpdate_49277" type="scatter_update">
			<data execOrder="146" execTimeMcs="not_executed" originalLayersNames="ScatterUpdate_49277" outputLayouts="bfyx" outputPrecisions="i32" primitiveType="scatter_update_cpu_impl__i32" runtimePrecision="i32" />
			<input>
				<port id="0" precision="I32">
					<dim>1</dim>
				</port>
			</input>
			<output>
				<port id="1" precision="I32">
					<dim>2</dim>
				</port>
			</output>
		</layer>
		<layer id="16" name="Slice_4800" type="StridedSlice">
			<data execOrder="148" execTimeMcs="not_executed" originalLayersNames="Slice_4800" outputLayouts="bfyx" outputPrecisions="i32" primitiveType="strided_slice_ref__i32" runtimePrecision="i32" />
			<input>
				<port id="0" precision="I32">
					<dim>-1</dim>
					<dim>-1</dim>
				</port>
				<port id="1" precision="I32">
					<dim>2</dim>
				</port>
				<port id="2" precision="I32">
					<dim>2</dim>
				</port>
			</input>
			<output>
				<port id="3" precision="I32">
					<dim>-1</dim>
					<dim>-1</dim>
				</port>
			</output>
		</layer>
		<layer id="17" name="Convert_4870" type="Reorder">
			<data execOrder="149" execTimeMcs="not_executed" originalLayersNames="Convert_4870" outputLayouts="bfyx" outputPrecisions="f16" primitiveType="reorder_data__i32" runtimePrecision="i32" />
			<input>
				<port id="0" precision="I32">
					<dim>-1</dim>
					<dim>-1</dim>
				</port>
			</input>
			<output>
				<port id="1" precision="FP16">
					<dim>-1</dim>
					<dim>-1</dim>
				</port>
			</output>
		</layer>
		<layer id="18" name="Unsqueeze_4871" type="Reshape">
			<data execOrder="150" execTimeMcs="not_executed" originalLayersNames="Unsqueeze_4871" outputLayouts="bfyx" outputPrecisions="f16" primitiveType="undef" runtimePrecision="f16" />
			<input>
				<port id="0" precision="FP16">
					<dim>-1</dim>
					<dim>-1</dim>
				</port>
			</input>
			<output>
				<port id="1" precision="FP16">
					<dim>-1</dim>
					<dim>-1</dim>
					<dim>1</dim>
				</port>
				<port id="2" precision="FP16">
					<dim>-1</dim>
					<dim>-1</dim>
					<dim>1</dim>
				</port>
				<port id="3" precision="FP16">
					<dim>-1</dim>
					<dim>-1</dim>
					<dim>1</dim>
				</port>
				<port id="4" precision="FP16">
					<dim>-1</dim>
					<dim>-1</dim>
					<dim>1</dim>
				</port>
				<port id="5" precision="FP16">
					<dim>-1</dim>
					<dim>-1</dim>
					<dim>1</dim>
				</port>
				<port id="6" precision="FP16">
					<dim>-1</dim>
					<dim>-1</dim>
					<dim>1</dim>
				</port>
				<port id="7" precision="FP16">
					<dim>-1</dim>
					<dim>-1</dim>
					<dim>1</dim>
				</port>
				<port id="8" precision="FP16">
					<dim>-1</dim>
					<dim>-1</dim>
					<dim>1</dim>
				</port>
				<port id="9" precision="FP16">
					<dim>-1</dim>
					<dim>-1</dim>
					<dim>1</dim>
				</port>
				<port id="10" precision="FP16">
					<dim>-1</dim>
					<dim>-1</dim>
					<dim>1</dim>
				</port>
				<port id="11" precision="FP16">
					<dim>-1</dim>
					<dim>-1</dim>
					<dim>1</dim>
				</port>
				<port id="12" precision="FP16">
					<dim>-1</dim>
					<dim>-1</dim>
					<dim>1</dim>
				</port>
				<port id="13" precision="FP16">
					<dim>-1</dim>
					<dim>-1</dim>
					<dim>1</dim>
				</port>
				<port id="14" precision="FP16">
					<dim>-1</dim>
					<dim>-1</dim>
					<dim>1</dim>
				</port>
				<port id="15" precision="FP16">
					<dim>-1</dim>
					<dim>-1</dim>
					<dim>1</dim>
				</port>
				<port id="16" precision="FP16">
					<dim>-1</dim>
					<dim>-1</dim>
					<dim>1</dim>
				</port>
				<port id="17" precision="FP16">
					<dim>-1</dim>
					<dim>-1</dim>
					<dim>1</dim>
				</port>
				<port id="18" precision="FP16">
					<dim>-1</dim>
					<dim>-1</dim>
					<dim>1</dim>
				</port>
				<port id="19" precision="FP16">
					<dim>-1</dim>
					<dim>-1</dim>
					<dim>1</dim>
				</port>
				<port id="20" precision="FP16">
					<dim>-1</dim>
					<dim>-1</dim>
					<dim>1</dim>
				</port>
				<port id="21" precision="FP16">
					<dim>-1</dim>
					<dim>-1</dim>
					<dim>1</dim>
				</port>
				<port id="22" precision="FP16">
					<dim>-1</dim>
					<dim>-1</dim>
					<dim>1</dim>
				</port>
				<port id="23" precision="FP16">
					<dim>-1</dim>
					<dim>-1</dim>
					<dim>1</dim>
				</port>
				<port id="24" precision="FP16">
					<dim>-1</dim>
					<dim>-1</dim>
					<dim>1</dim>
				</port>
			</output>
		</layer>
		<layer id="19" name="RMS_4869" type="rms">
			<data execOrder="983" execTimeMcs="not_executed" originalLayersNames="RMS_4869,Multiply_4872,MatMul_4873_scale_down" outputLayouts="bfyx" outputPrecisions="f16" primitiveType="rms_gpu_bfyx_opt__f16" runtimePrecision="f16" />
			<input>
				<port id="0" precision="FP16">
					<dim>-1</dim>
					<dim>-1</dim>
					<dim>2560</dim>
				</port>
				<port id="1" precision="FP16">
					<dim>-1</dim>
					<dim>-1</dim>
					<dim>1</dim>
				</port>
			</input>
			<output>
				<port id="2" precision="FP16">
					<dim>-1</dim>
					<dim>-1</dim>
					<dim>2560</dim>
				</port>
				<port id="3" precision="FP16">
					<dim>-1</dim>
					<dim>-1</dim>
					<dim>2560</dim>
				</port>
				<port id="4" precision="FP16">
					<dim>-1</dim>
					<dim>-1</dim>
					<dim>2560</dim>
				</port>
				<port id="5" precision="FP16">
					<dim>-1</dim>
					<dim>-1</dim>
					<dim>2560</dim>
				</port>
				<port id="6" precision="FP16">
					<dim>-1</dim>
					<dim>-1</dim>
					<dim>2560</dim>
				</port>
			</output>
		</layer>
		<layer id="20" name="DynamicQuantize_115497" type="DynamicQuantize">
			<data execOrder="1000" execTimeMcs="not_executed" group_sizes="1, 1, -1" originalLayersNames="DynamicQuantize_115497" outputLayouts="bfyx" outputPrecisions="i8" primitiveType="dynamic_quantize_gpu_opt__f16" runtimePrecision="f16" />
			<input>
				<port id="0" precision="FP16">
					<dim>-1</dim>
					<dim>-1</dim>
					<dim>2560</dim>
				</port>
			</input>
			<output>
				<port id="1" precision="I8">
					<dim>-1</dim>
					<dim>-1</dim>
					<dim>2560</dim>
				</port>
				<port id="2" precision="I8">
					<dim>-1</dim>
					<dim>-1</dim>
					<dim>2560</dim>
				</port>
			</output>
		</layer>
		<layer id="21" name="MatMul_4873" type="FullyConnected">
			<data execOrder="1001" execTimeMcs="not_executed" originalLayersNames="MatMul_4873,Multiply_102485" outputLayouts="bfyx" outputPrecisions="f16" primitiveType="undef" runtimePrecision="i8" />
			<input>
				<port id="0" precision="I8">
					<dim>-1</dim>
					<dim>-1</dim>
					<dim>2560</dim>
				</port>
				<port id="1" precision="I8">
					<dim>-1</dim>
					<dim>-1</dim>
					<dim>2560</dim>
				</port>
			</input>
			<output>
				<port id="2" precision="FP16">
					<dim>-1</dim>
					<dim>-1</dim>
					<dim>8192</dim>
				</port>
			</output>
		</layer>
		<layer id="22" name="Transpose_4880" type="Permute">
			<data execOrder="1002" execTimeMcs="not_executed" originalLayersNames="Transpose_4880" outputLayouts="bfyx" outputPrecisions="f16" primitiveType="permute_ref__f16" runtimePrecision="f16" />
			<input>
				<port id="0" precision="FP16">
					<dim>-1</dim>
					<dim>-1</dim>
					<dim>8192</dim>
				</port>
			</input>
			<output>
				<port id="1" precision="FP16">
					<dim>-1</dim>
					<dim>8192</dim>
					<dim>-1</dim>
				</port>
			</output>
		</layer>
		<layer id="23" name="ShapeOf_65914" type="shape_of">
			<data execOrder="984" execTimeMcs="not_executed" originalLayersNames="ShapeOf_65914" outputLayouts="bfyx" outputPrecisions="i32" primitiveType="shape_of_cpu_impl__f16" runtimePrecision="f16" />
			<input>
				<port id="0" precision="FP16">
					<dim>-1</dim>
					<dim>-1</dim>
					<dim>2560</dim>
				</port>
			</input>
			<output>
				<port id="1" precision="I32">
					<dim>3</dim>
				</port>
			</output>
		</layer>
		<layer id="24" name="Gather_65917" type="Gather">
			<data execOrder="985" execTimeMcs="not_executed" originalLayersNames="Gather_65917" outputLayouts="bfyx" outputPrecisions="i32" primitiveType="gather_cpu_impl__i32" runtimePrecision="i32" />
			<input>
				<port id="0" precision="I32">
					<dim>3</dim>
				</port>
			</input>
			<output>
				<port id="1" precision="I32">
					<dim>1</dim>
				</port>
				<port id="2" precision="I32">
					<dim>1</dim>
				</port>
			</output>
		</layer>
		<layer id="25" name="Concat_4887" type="Concat">
			<data execOrder="988" execTimeMcs="not_executed" originalLayersNames="Concat_4887" outputLayouts="bfyx" outputPrecisions="i32" primitiveType="concatenation_cpu_impl__i32" runtimePrecision="i32" />
			<input>
				<port id="0" precision="I32">
					<dim>1</dim>
				</port>
			</input>
			<output>
				<port id="1" precision="I32">
					<dim>3</dim>
				</port>
			</output>
		</layer>
		<layer id="26" name="Broadcast_4889" type="broadcast">
			<data execOrder="989" execTimeMcs="not_executed" originalLayersNames="Broadcast_4889" outputLayouts="bfyx" outputPrecisions="f16" primitiveType="broadcast_cpu_impl__f16" runtimePrecision="f16" />
			<input>
				<port id="0" precision="I32">
					<dim>3</dim>
				</port>
			</input>
			<output>
				<port id="1" precision="FP16">
					<dim>-1</dim>
					<dim>8192</dim>
					<dim>4</dim>
				</port>
			</output>
		</layer>
		<layer id="27" name="FusedConv_4894" type="fused_conv">
			<data execOrder="1003" execTimeMcs="not_executed" originalLayersNames="FusedConv_4894" outputLayouts="bfyx" outputPrecisions="f16" primitiveType="ocl::fused_conv::ref___f16" runtimePrecision="f16" />
			<input>
				<port id="0" precision="FP16">
					<dim>-1</dim>
					<dim>8192</dim>
					<dim>-1</dim>
				</port>
				<port id="1" precision="I32">
					<dim>-1</dim>
				</port>
				<port id="2" precision="FP16">
					<dim>-1</dim>
					<dim>8192</dim>
					<dim>4</dim>
				</port>
				<port id="3" precision="I32">
					<dim>1</dim>
				</port>
			</input>
			<output>
				<port id="4" precision="FP16">
					<dim>-1</dim>
					<dim>8192</dim>
					<dim>-1</dim>
				</port>
				<port id="5" precision="FP16">
					<dim>-1</dim>
					<dim>8192</dim>
					<dim>-1</dim>
				</port>
			</output>
		</layer>
		<layer id="28" name="snapshot.linear_states.0.conv" type="Reorder">
			<data execOrder="2288" execTimeMcs="not_executed" originalLayersNames="snapshot.linear_states.0.conv" outputLayouts="bfyx" outputPrecisions="f16" primitiveType="reorder_data__f16" runtimePrecision="f16" />
			<input>
				<port id="0" precision="FP16">
					<dim>-1</dim>
					<dim>8192</dim>
					<dim>-1</dim>
				</port>
			</input>
			<output>
				<port id="1" precision="FP16">
					<dim>-1</dim>
					<dim>16</dim>
					<dim>8192</dim>
					<dim>4</dim>
				</port>
			</output>
		</layer>
		<layer id="29" name="Transpose_4895" type="Permute">
			<data execOrder="1004" execTimeMcs="not_executed" originalLayersNames="Transpose_4895" outputLayouts="bfyx" outputPrecisions="f16" primitiveType="permute_ref__f16" runtimePrecision="f16" />
			<input>
				<port id="0" precision="FP16">
					<dim>-1</dim>
					<dim>8192</dim>
					<dim>-1</dim>
				</port>
			</input>
			<output>
				<port id="1" precision="FP16">
					<dim>-1</dim>
					<dim>-1</dim>
					<dim>8192</dim>
				</port>
				<port id="2" precision="FP16">
					<dim>-1</dim>
					<dim>-1</dim>
					<dim>8192</dim>
				</port>
				<port id="3" precision="FP16">
					<dim>-1</dim>
					<dim>-1</dim>
					<dim>8192</dim>
				</port>
			</output>
		</layer>
		<layer id="30" name="Slice_4897" type="StridedSlice">
			<data execOrder="1009" execTimeMcs="not_executed" originalLayersNames="Slice_4897" outputLayouts="bfyx" outputPrecisions="f16" primitiveType="strided_slice_ref__f16" runtimePrecision="f16" />
			<input>
				<port id="0" precision="FP16">
					<dim>-1</dim>
					<dim>-1</dim>
					<dim>8192</dim>
				</port>
			</input>
			<output>
				<port id="1" precision="FP16">
					<dim>-1</dim>
					<dim>-1</dim>
					<dim>2048</dim>
				</port>
			</output>
		</layer>
		<layer id="31" name="Reshape_4902" type="Reshape">
			<data execOrder="1010" execTimeMcs="not_executed" originalLayersNames="Reshape_4902" outputLayouts="bfyx" outputPrecisions="f16" primitiveType="undef" runtimePrecision="f16" />
			<input>
				<port id="0" precision="FP16">
					<dim>-1</dim>
					<dim>-1</dim>
					<dim>2048</dim>
				</port>
			</input>
			<output>
				<port id="1" precision="FP16">
					<dim>-1</dim>
					<dim>-1</dim>
					<dim>16</dim>
					<dim>128</dim>
				</port>
			</output>
		</layer>
		<layer id="32" name="Slice_4899" type="StridedSlice">
			<data execOrder="1007" execTimeMcs="not_executed" originalLayersNames="Slice_4899" outputLayouts="bfyx" outputPrecisions="f16" primitiveType="strided_slice_ref__f16" runtimePrecision="f16" />
			<input>
				<port id="0" precision="FP16">
					<dim>-1</dim>
					<dim>-1</dim>
					<dim>8192</dim>
				</port>
			</input>
			<output>
				<port id="1" precision="FP16">
					<dim>-1</dim>
					<dim>-1</dim>
					<dim>2048</dim>
				</port>
			</output>
		</layer>
		<layer id="33" name="Reshape_4903" type="Reshape">
			<data execOrder="1008" execTimeMcs="not_executed" originalLayersNames="Reshape_4903" outputLayouts="bfyx" outputPrecisions="f16" primitiveType="undef" runtimePrecision="f16" />
			<input>
				<port id="0" precision="FP16">
					<dim>-1</dim>
					<dim>-1</dim>
					<dim>2048</dim>
				</port>
			</input>
			<output>
				<port id="1" precision="FP16">
					<dim>-1</dim>
					<dim>-1</dim>
					<dim>16</dim>
					<dim>128</dim>
				</port>
			</output>
		</layer>
		<layer id="34" name="Slice_4900" type="StridedSlice">
			<data execOrder="1005" execTimeMcs="not_executed" originalLayersNames="Slice_4900" outputLayouts="bfyx" outputPrecisions="f16" primitiveType="strided_slice_ref__f16" runtimePrecision="f16" />
			<input>
				<port id="0" precision="FP16">
					<dim>-1</dim>
					<dim>-1</dim>
					<dim>8192</dim>
				</port>
			</input>
			<output>
				<port id="1" precision="FP16">
					<dim>-1</dim>
					<dim>-1</dim>
					<dim>4096</dim>
				</port>
			</output>
		</layer>
		<layer id="35" name="Reshape_4904" type="Reshape">
			<data execOrder="1006" execTimeMcs="not_executed" originalLayersNames="Reshape_4904" outputLayouts="bfyx" outputPrecisions="f16" primitiveType="undef" runtimePrecision="f16" />
			<input>
				<port id="0" precision="FP16">
					<dim>-1</dim>
					<dim>-1</dim>
					<dim>4096</dim>
				</port>
			</input>
			<output>
				<port id="1" precision="FP16">
					<dim>-1</dim>
					<dim>-1</dim>
					<dim>32</dim>
					<dim>128</dim>
				</port>
			</output>
		</layer>
		<layer id="36" name="DynamicQuantize_115503" type="DynamicQuantize">
			<data execOrder="996" execTimeMcs="not_executed" group_sizes="1, 1, -1" originalLayersNames="DynamicQuantize_115503" outputLayouts="bfyx" outputPrecisions="i8" primitiveType="dynamic_quantize_gpu_opt__f16" runtimePrecision="f16" />
			<input>
				<port id="0" precision="FP16">
					<dim>-1</dim>
					<dim>-1</dim>
					<dim>2560</dim>
				</port>
			</input>
			<output>
				<port id="1" precision="I8">
					<dim>-1</dim>
					<dim>-1</dim>
					<dim>2560</dim>
				</port>
				<port id="2" precision="I8">
					<dim>-1</dim>
					<dim>-1</dim>
					<dim>2560</dim>
				</port>
			</output>
		</layer>
		<layer id="37" name="MatMul_4876" type="FullyConnected">
			<data execOrder="997" execTimeMcs="not_executed" originalLayersNames="MatMul_4876,Add_4907,MatMul_4876_scale_up" outputLayouts="bfyx" outputPrecisions="f16" primitiveType="undef" runtimePrecision="i8" />
			<input>
				<port id="0" precision="I8">
					<dim>-1</dim>
					<dim>-1</dim>
					<dim>2560</dim>
				</port>
				<port id="1" precision="I8">
					<dim>-1</dim>
					<dim>-1</dim>
					<dim>2560</dim>
				</port>
			</input>
			<output>
				<port id="2" precision="FP16">
					<dim>-1</dim>
					<dim>-1</dim>
					<dim>32</dim>
				</port>
			</output>
		</layer>
		<layer id="38" name="SoftPlus_4908" type="Activation">
			<data execOrder="998" execTimeMcs="not_executed" originalLayersNames="SoftPlus_4908" outputLayouts="bfyx" outputPrecisions="f16" primitiveType="activation_ref__f16" runtimePrecision="f16" />
			<input>
				<port id="0" precision="FP16">
					<dim>-1</dim>
					<dim>-1</dim>
					<dim>32</dim>
				</port>
			</input>
			<output>
				<port id="1" precision="FP16">
					<dim>-1</dim>
					<dim>-1</dim>
					<dim>32</dim>
				</port>
			</output>
		</layer>
		<layer id="39" name="Negative_4911" type="Eltwise">
			<data execOrder="999" execTimeMcs="not_executed" originalLayersNames="Negative_4911" outputLayouts="bfyx" outputPrecisions="f16" primitiveType="generic_eltwise_ref__f16" runtimePrecision="f16" />
			<input>
				<port id="0" precision="FP16">
					<dim>-1</dim>
					<dim>-1</dim>
					<dim>32</dim>
				</port>
			</input>
			<output>
				<port id="1" precision="FP16">
					<dim>-1</dim>
					<dim>-1</dim>
					<dim>32</dim>
				</port>
			</output>
		</layer>
		<layer id="40" name="DynamicQuantize_115509" type="DynamicQuantize">
			<data execOrder="994" execTimeMcs="not_executed" group_sizes="1, 1, -1" originalLayersNames="DynamicQuantize_115509" outputLayouts="bfyx" outputPrecisions="i8" primitiveType="dynamic_quantize_gpu_opt__f16" runtimePrecision="f16" />
			<input>
				<port id="0" precision="FP16">
					<dim>-1</dim>
					<dim>-1</dim>
					<dim>2560</dim>
				</port>
			</input>
			<output>
				<port id="1" precision="I8">
					<dim>-1</dim>
					<dim>-1</dim>
					<dim>2560</dim>
				</port>
				<port id="2" precision="I8">
					<dim>-1</dim>
					<dim>-1</dim>
					<dim>2560</dim>
				</port>
			</output>
		</layer>
		<layer id="41" name="MatMul_4875" type="FullyConnected">
			<data execOrder="995" execTimeMcs="not_executed" originalLayersNames="MatMul_4875,MatMul_4875_scale_up,Sigmoid_4906" outputLayouts="bfyx" outputPrecisions="f16" primitiveType="undef" runtimePrecision="i8" />
			<input>
				<port id="0" precision="I8">
					<dim>-1</dim>
					<dim>-1</dim>
					<dim>2560</dim>
				</port>
				<port id="1" precision="I8">
					<dim>-1</dim>
					<dim>-1</dim>
					<dim>2560</dim>
				</port>
			</input>
			<output>
				<port id="2" precision="FP16">
					<dim>-1</dim>
					<dim>-1</dim>
					<dim>32</dim>
				</port>
			</output>
		</layer>
		<layer id="42" name="Concat_4914" type="Concat">
			<data execOrder="986" execTimeMcs="not_executed" originalLayersNames="Concat_4914" outputLayouts="bfyx" outputPrecisions="i32" primitiveType="concatenation_cpu_impl__i32" runtimePrecision="i32" />
			<input>
				<port id="0" precision="I32">
					<dim>1</dim>
				</port>
			</input>
			<output>
				<port id="1" precision="I32">
					<dim>4</dim>
				</port>
			</output>
		</layer>
		<layer id="43" name="Broadcast_4916" type="broadcast">
			<data execOrder="987" execTimeMcs="not_executed" originalLayersNames="Broadcast_4916" outputLayouts="bfyx" outputPrecisions="f16" primitiveType="broadcast_cpu_impl__f16" runtimePrecision="f16" />
			<input>
				<port id="0" precision="I32">
					<dim>4</dim>
				</port>
			</input>
			<output>
				<port id="1" precision="FP16">
					<dim>-1</dim>
					<dim>32</dim>
					<dim>128</dim>
					<dim>128</dim>
				</port>
			</output>
		</layer>
		<layer id="44" name="LinearAttention_4919" type="linear_attention">
			<data execOrder="1011" execTimeMcs="not_executed" originalLayersNames="LinearAttention_4919" outputLayouts="bfyx" outputPrecisions="f16" primitiveType="ocl::linear_attention::ref___f16" runtimePrecision="f16" />
			<input>
				<port id="0" precision="FP16">
					<dim>-1</dim>
					<dim>-1</dim>
					<dim>16</dim>
					<dim>128</dim>
				</port>
				<port id="1" precision="FP16">
					<dim>-1</dim>
					<dim>-1</dim>
					<dim>16</dim>
					<dim>128</dim>
				</port>
				<port id="2" precision="FP16">
					<dim>-1</dim>
					<dim>-1</dim>
					<dim>32</dim>
					<dim>128</dim>
				</port>
				<port id="3" precision="FP16">
					<dim>-1</dim>
					<dim>-1</dim>
					<dim>32</dim>
				</port>
				<port id="4" precision="FP16">
					<dim>-1</dim>
					<dim>-1</dim>
					<dim>32</dim>
				</port>
				<port id="5" precision="FP16">
					<dim>-1</dim>
					<dim>32</dim>
					<dim>128</dim>
					<dim>128</dim>
				</port>
				<port id="6" precision="I32">
					<dim>1</dim>
				</port>
			</input>
			<output>
				<port id="7" precision="FP16">
					<dim>-1</dim>
					<dim>-1</dim>
					<dim>32</dim>
					<dim>128</dim>
				</port>
				<port id="8" precision="FP16">
					<dim>-1</dim>
					<dim>-1</dim>
					<dim>32</dim>
					<dim>128</dim>
				</port>
			</output>
		</layer>
		<layer id="45" name="snapshot.linear_states.0.recurrent" type="Reorder">
			<data execOrder="2287" execTimeMcs="not_executed" originalLayersNames="snapshot.linear_states.0.recurrent" outputLayouts="bfzyx" outputPrecisions="f16" primitiveType="reorder_data__f16" runtimePrecision="f16" />
			<input>
				<port id="0" precision="FP16">
					<dim>-1</dim>
					<dim>-1</dim>
					<dim>32</dim>
					<dim>128</dim>
				</port>
			</input>
			<output>
				<port id="1" precision="FP16">
					<dim>-1</dim>
					<dim>16</dim>
					<dim>32</dim>
					<dim>128</dim>
					<dim>128</dim>
				</port>
			</output>
		</layer>
		<layer id="46" name="DynamicQuantize_115515" type="DynamicQuantize">
			<data execOrder="990" execTimeMcs="not_executed" group_sizes="1, 1, -1" originalLayersNames="DynamicQuantize_115515" outputLayouts="bfyx" outputPrecisions="i8" primitiveType="dynamic_quantize_gpu_opt__f16" runtimePrecision="f16" />
			<input>
				<port id="0" precision="FP16">
					<dim>-1</dim>
					<dim>-1</dim>
					<dim>2560</dim>
				</port>
			</input>
			<output>
				<port id="1" precision="I8">
					<dim>-1</dim>
					<dim>-1</dim>
					<dim>2560</dim>
				</port>
				<port id="2" precision="I8">
					<dim>-1</dim>
					<dim>-1</dim>
					<dim>2560</dim>
				</port>
			</output>
		</layer>
		<layer id="47" name="MatMul_4874" type="FullyConnected">
			<data execOrder="991" execTimeMcs="not_executed" originalLayersNames="MatMul_4874,Multiply_102490" outputLayouts="bfyx" outputPrecisions="f16" primitiveType="undef" runtimePrecision="i8" />
			<input>
				<port id="0" precision="I8">
					<dim>-1</dim>
					<dim>-1</dim>
					<dim>2560</dim>
				</port>
				<port id="1" precision="I8">
					<dim>-1</dim>
					<dim>-1</dim>
					<dim>2560</dim>
				</port>
			</input>
			<output>
				<port id="2" precision="FP16">
					<dim>-1</dim>
					<dim>-1</dim>
					<dim>4096</dim>
				</port>
			</output>
		</layer>
		<layer id="48" name="Reshape_4878" type="Reshape">
			<data execOrder="992" execTimeMcs="not_executed" originalLayersNames="Reshape_4878" outputLayouts="bfyx" outputPrecisions="f16" primitiveType="undef" runtimePrecision="f16" />
			<input>
				<port id="0" precision="FP16">
					<dim>-1</dim>
					<dim>-1</dim>
					<dim>4096</dim>
				</port>
			</input>
			<output>
				<port id="1" precision="FP16">
					<dim>-1</dim>
					<dim>-1</dim>
					<dim>32</dim>
					<dim>128</dim>
				</port>
			</output>
		</layer>
		<layer id="49" name="Swish_4928" type="Activation">
			<data execOrder="993" execTimeMcs="not_executed" originalLayersNames="Swish_4928" outputLayouts="bfyx" outputPrecisions="f16" primitiveType="activation_ref__f16" runtimePrecision="f16" />
			<input>
				<port id="0" precision="FP16">
					<dim>-1</dim>
					<dim>-1</dim>
					<dim>32</dim>
					<dim>128</dim>
				</port>
			</input>
			<output>
				<port id="1" precision="FP16">
					<dim>-1</dim>
					<dim>-1</dim>
					<dim>32</dim>
					<dim>128</dim>
				</port>
			</output>
		</layer>
		<layer id="50" name="Multiply_4929" type="rms">
			<data execOrder="1012" execTimeMcs="not_executed" originalLayersNames="Multiply_4929,Multiply_4930,Multiply_102495" outputLayouts="bfyx" outputPrecisions="f16" primitiveType="rms_gpu_bfyx_opt__f16" runtimePrecision="f16" />
			<input>
				<port id="0" precision="FP16">
					<dim>-1</dim>
					<dim>-1</dim>
					<dim>32</dim>
					<dim>128</dim>
				</port>
				<port id="1" precision="FP16">
					<dim>-1</dim>
					<dim>-1</dim>
					<dim>32</dim>
					<dim>128</dim>
				</port>
			</input>
			<output>
				<port id="2" precision="FP16">
					<dim>-1</dim>
					<dim>-1</dim>
					<dim>32</dim>
					<dim>128</dim>
				</port>
			</output>
		</layer>
		<layer id="51" name="Reshape_4932" type="Reshape">
			<data execOrder="1013" execTimeMcs="not_executed" originalLayersNames="Reshape_4932" outputLayouts="bfyx" outputPrecisions="f16" primitiveType="undef" runtimePrecision="f16" />
			<input>
				<port id="0" precision="FP16">
					<dim>-1</dim>
					<dim>-1</dim>
					<dim>32</dim>
					<dim>128</dim>
				</port>
			</input>
			<output>
				<port id="1" precision="FP16">
					<dim>-1</dim>
					<dim>-1</dim>
					<dim>4096</dim>
				</port>
			</output>
		</layer>
		<layer id="52" name="DynamicQuantize_115521" type="DynamicQuantize">
			<data execOrder="1014" execTimeMcs="not_executed" group_sizes="1, 1, -1" originalLayersNames="DynamicQuantize_115521" outputLayouts="bfyx" outputPrecisions="i8" primitiveType="dynamic_quantize_gpu_opt__f16" runtimePrecision="f16" />
			<input>
				<port id="0" precision="FP16">
					<dim>-1</dim>
					<dim>-1</dim>
					<dim>4096</dim>
				</port>
			</input>
			<output>
				<port id="1" precision="I8">
					<dim>-1</dim>
					<dim>-1</dim>
					<dim>4096</dim>
				</port>
				<port id="2" precision="I8">
					<dim>-1</dim>
					<dim>-1</dim>
					<dim>4096</dim>
				</port>
			</output>
		</layer>
		<layer id="53" name="MatMul_4933" type="FullyConnected">
			<data execOrder="1015" execTimeMcs="not_executed" originalLayersNames="MatMul_4933,Add_4934" outputLayouts="bfyx" outputPrecisions="f16" primitiveType="undef" runtimePrecision="i8" />
			<input>
				<port id="0" precision="I8">
					<dim>-1</dim>
					<dim>-1</dim>
					<dim>4096</dim>
				</port>
				<port id="1" precision="I8">
					<dim>-1</dim>
					<dim>-1</dim>
					<dim>4096</dim>
				</port>
				<port id="2" precision="FP16">
					<dim>-1</dim>
					<dim>-1</dim>
					<dim>2560</dim>
				</port>
			</input>
			<output>
				<port id="3" precision="FP16">
					<dim>-1</dim>
					<dim>-1</dim>
					<dim>2560</dim>
				</port>
				<port id="4" precision="FP16">
					<dim>-1</dim>
					<dim>-1</dim>
					<dim>2560</dim>
				</port>
			</output>
		</layer>
		<layer id="54" name="RMS_4936" type="rms">
			<data execOrder="1016" execTimeMcs="not_executed" originalLayersNames="RMS_4936,MatMul_4937_scale_down" outputLayouts="bfyx" outputPrecisions="f16" primitiveType="rms_gpu_bfyx_opt__f16" runtimePrecision="f16" />
			<input>
				<port id="0" precision="FP16">
					<dim>-1</dim>
					<dim>-1</dim>
					<dim>2560</dim>
				</port>
			</input>
			<output>
				<port id="1" precision="FP16">
					<dim>-1</dim>
					<dim>-1</dim>
					<dim>2560</dim>
				</port>
				<port id="2" precision="FP16">
					<dim>-1</dim>
					<dim>-1</dim>
					<dim>2560</dim>
				</port>
			</output>
		</layer>
		<layer id="55" name="DynamicQuantize_115527" type="DynamicQuantize">
			<data execOrder="1019" execTimeMcs="not_executed" group_sizes="1, 1, -1" originalLayersNames="DynamicQuantize_115527" outputLayouts="bfyx" outputPrecisions="i8" primitiveType="dynamic_quantize_gpu_opt__f16" runtimePrecision="f16" />
			<input>
				<port id="0" precision="FP16">
					<dim>-1</dim>
					<dim>-1</dim>
					<dim>2560</dim>
				</port>
			</input>
			<output>
				<port id="1" precision="I8">
					<dim>-1</dim>
					<dim>-1</dim>
					<dim>2560</dim>
				</port>
				<port id="2" precision="I8">
					<dim>-1</dim>
					<dim>-1</dim>
					<dim>2560</dim>
				</port>
			</output>
		</layer>
		<layer id="56" name="DynamicQuantize_115533" type="DynamicQuantize">
			<data execOrder="1017" execTimeMcs="not_executed" group_sizes="1, 1, -1" originalLayersNames="DynamicQuantize_115533" outputLayouts="bfyx" outputPrecisions="i8" primitiveType="dynamic_quantize_gpu_opt__f16" runtimePrecision="f16" />
			<input>
				<port id="0" precision="FP16">
					<dim>-1</dim>
					<dim>-1</dim>
					<dim>2560</dim>
				</port>
			</input>
			<output>
				<port id="1" precision="I8">
					<dim>-1</dim>
					<dim>-1</dim>
					<dim>2560</dim>
				</port>
				<port id="2" precision="I8">
					<dim>-1</dim>
					<dim>-1</dim>
					<dim>2560</dim>
				</port>
			</output>
		</layer>
		<layer id="57" name="MatMul_4938" type="FullyConnected">
			<data execOrder="1018" execTimeMcs="not_executed" originalLayersNames="MatMul_4938" outputLayouts="bfyx" outputPrecisions="f16" primitiveType="undef" runtimePrecision="i8" />
			<input>
				<port id="0" precision="I8">
					<dim>-1</dim>
					<dim>-1</dim>
					<dim>2560</dim>
				</port>
				<port id="1" precision="I8">
					<dim>-1</dim>
					<dim>-1</dim>
					<dim>2560</dim>
				</port>
			</input>
			<output>
				<port id="2" precision="FP16">
					<dim>-1</dim>
					<dim>-1</dim>
					<dim>9216</dim>
				</port>
			</output>
		</layer>
		<layer id="58" name="MatMul_4937" type="FullyConnected">
			<data execOrder="1020" execTimeMcs="not_executed" originalLayersNames="MatMul_4937,MatMul_4937_scale_up,Swish_4939,Multiply_4940_mm" outputLayouts="bfyx" outputPrecisions="f16" primitiveType="undef" runtimePrecision="i8" />
			<input>
				<port id="0" precision="I8">
					<dim>-1</dim>
					<dim>-1</dim>
					<dim>2560</dim>
				</port>
				<port id="1" precision="I8">
					<dim>-1</dim>
					<dim>-1</dim>
					<dim>2560</dim>
				</port>
				<port id="2" precision="FP16">
					<dim>-1</dim>
					<dim>-1</dim>
					<dim>9216</dim>
				</port>
			</input>
			<output>
				<port id="3" precision="FP16">
					<dim>-1</dim>
					<dim>-1</dim>
					<dim>9216</dim>
				</port>
			</output>
		</layer>
		<layer id="59" name="DynamicQuantize_115539" type="DynamicQuantize">
			<data execOrder="1021" execTimeMcs="not_executed" group_sizes="1, 1, -1" originalLayersNames="DynamicQuantize_115539" outputLayouts="bfyx" outputPrecisions="i8" primitiveType="dynamic_quantize_gpu_opt__f16" runtimePrecision="f16" />
			<input>
				<port id="0" precision="FP16">
					<dim>-1</dim>
					<dim>-1</dim>
					<dim>9216</dim>
				</port>
			</input>
			<output>
				<port id="1" precision="I8">
					<dim>-1</dim>
					<dim>-1</dim>
					<dim>9216</dim>
				</port>
				<port id="2" precision="I8">
					<dim>-1</dim>
					<dim>-1</dim>
					<dim>9216</dim>
				</port>
			</output>
		</layer>
		<layer id="60" name="MatMul_4941" type="FullyConnected">
			<data execOrder="1022" execTimeMcs="not_executed" originalLayersNames="MatMul_4941,Add_4942" outputLayouts="bfyx" outputPrecisions="f16" primitiveType="undef" runtimePrecision="i8" />
			<input>
				<port id="0" precision="I8">
					<dim>-1</dim>
					<dim>-1</dim>
					<dim>9216</dim>
				</port>
				<port id="1" precision="I8">
					<dim>-1</dim>
					<dim>-1</dim>
					<dim>9216</dim>
				</port>
				<port id="2" precision="FP16">
					<dim>-1</dim>
					<dim>-1</dim>
					<dim>2560</dim>
				</port>
			</input>
			<output>
				<port id="3" precision="FP16">
					<dim>-1</dim>
					<dim>-1</dim>
					<dim>2560</dim>
				</port>
				<port id="4" precision="FP16">
					<dim>-1</dim>
					<dim>-1</dim>
					<dim>2560</dim>
				</port>
			</output>
		</layer>
		<layer id="61" name="RMS_4944" type="rms">
			<data execOrder="1023" execTimeMcs="not_executed" originalLayersNames="RMS_4944,Multiply_4947,MatMul_4948_scale_down" outputLayouts="bfyx" outputPrecisions="f16" primitiveType="rms_gpu_bfyx_opt__f16" runtimePrecision="f16" />
			<input>
				<port id="0" precision="FP16">
					<dim>-1</dim>
					<dim>-1</dim>
					<dim>2560</dim>
				</port>
				<port id="1" precision="FP16">
					<dim>-1</dim>
					<dim>-1</dim>
					<dim>1</dim>
				</port>
			</input>
			<output>
				<port id="2" precision="FP16">
					<dim>-1</dim>
					<dim>-1</dim>
					<dim>2560</dim>
				</port>
				<port id="3" precision="FP16">
					<dim>-1</dim>
					<dim>-1</dim>
					<dim>2560</dim>
				</port>
				<port id="4" precision="FP16">
					<dim>-1</dim>
					<dim>-1</dim>
					<dim>2560</dim>
				</port>
				<port id="5" precision="FP16">
					<dim>-1</dim>
					<dim>-1</dim>
					<dim>2560</dim>
				</port>
				<port id="6" precision="FP16">
					<dim>-1</dim>
					<dim>-1</dim>
					<dim>2560</dim>
				</port>
			</output>
		</layer>
		<layer id="62" name="DynamicQuantize_115545" type="DynamicQuantize">
			<data execOrder="1040" execTimeMcs="not_executed" group_sizes="1, 1, -1" originalLayersNames="DynamicQuantize_115545" outputLayouts="bfyx" outputPrecisions="i8" primitiveType="dynamic_quantize_gpu_opt__f16" runtimePrecision="f16" />
			<input>
				<port id="0" precision="FP16">
					<dim>-1</dim>
					<dim>-1</dim>
					<dim>2560</dim>
				</port>
			</input>
			<output>
				<port id="1" precision="I8">
					<dim>-1</dim>
					<dim>-1</dim>
					<dim>2560</dim>
				</port>
				<port id="2" precision="I8">
					<dim>-1</dim>
					<dim>-1</dim>
					<dim>2560</dim>
				</port>
			</output>
		</layer>
		<layer id="63" name="MatMul_4948" type="FullyConnected">
			<data execOrder="1041" execTimeMcs="not_executed" originalLayersNames="MatMul_4948,Multiply_102500" outputLayouts="bfyx" outputPrecisions="f16" primitiveType="undef" runtimePrecision="i8" />
			<input>
				<port id="0" precision="I8">
					<dim>-1</dim>
					<dim>-1</dim>
					<dim>2560</dim>
				</port>
				<port id="1" precision="I8">
					<dim>-1</dim>
					<dim>-1</dim>
					<dim>2560</dim>
				</port>
			</input>
			<output>
				<port id="2" precision="FP16">
					<dim>-1</dim>
					<dim>-1</dim>
					<dim>8192</dim>
				</port>
			</output>
		</layer>
		<layer id="64" name="Transpose_4953" type="Permute">
			<data execOrder="1042" execTimeMcs="not_executed" originalLayersNames="Transpose_4953" outputLayouts="bfyx" outputPrecisions="f16" primitiveType="permute_ref__f16" runtimePrecision="f16" />
			<input>
				<port id="0" precision="FP16">
					<dim>-1</dim>
					<dim>-1</dim>
					<dim>8192</dim>
				</port>
			</input>
			<output>
				<port id="1" precision="FP16">
					<dim>-1</dim>
					<dim>8192</dim>
					<dim>-1</dim>
				</port>
			</output>
		</layer>
		<layer id="65" name="ShapeOf_65924" type="shape_of">
			<data execOrder="1024" execTimeMcs="not_executed" originalLayersNames="ShapeOf_65924" outputLayouts="bfyx" outputPrecisions="i32" primitiveType="shape_of_cpu_impl__f16" runtimePrecision="f16" />
			<input>
				<port id="0" precision="FP16">
					<dim>-1</dim>
					<dim>-1</dim>
					<dim>2560</dim>
				</port>
			</input>
			<output>
				<port id="1" precision="I32">
					<dim>3</dim>
				</port>
			</output>
		</layer>
		<layer id="66" name="Gather_65927" type="Gather">
			<data execOrder="1025" execTimeMcs="not_executed" originalLayersNames="Gather_65927" outputLayouts="bfyx" outputPrecisions="i32" primitiveType="gather_cpu_impl__i32" runtimePrecision="i32" />
			<input>
				<port id="0" precision="I32">
					<dim>3</dim>
				</port>
			</input>
			<output>
				<port id="1" precision="I32">
					<dim>1</dim>
				</port>
				<port id="2" precision="I32">
					<dim>1</dim>
				</port>
			</output>
		</layer>
		<layer id="67" name="Concat_4958" type="Concat">
			<data execOrder="1028" execTimeMcs="not_executed" originalLayersNames="Concat_4958" outputLayouts="bfyx" outputPrecisions="i32" primitiveType="concatenation_cpu_impl__i32" runtimePrecision="i32" />
			<input>
				<port id="0" precision="I32">
					<dim>1</dim>
				</port>
			</input>
			<output>
				<port id="1" precision="I32">
					<dim>3</dim>
				</port>
			</output>
		</layer>
		<layer id="68" name="Broadcast_4960" type="broadcast">
			<data execOrder="1029" execTimeMcs="not_executed" originalLayersNames="Broadcast_4960" outputLayouts="bfyx" outputPrecisions="f16" primitiveType="broadcast_cpu_impl__f16" runtimePrecision="f16" />
			<input>
				<port id="0" precision="I32">
					<dim>3</dim>
				</port>
			</input>
			<output>
				<port id="1" precision="FP16">
					<dim>-1</dim>
					<dim>8192</dim>
					<dim>4</dim>
				</port>
			</output>
		</layer>
		<layer id="69" name="FusedConv_4964" type="fused_conv">
			<data execOrder="1043" execTimeMcs="not_executed" originalLayersNames="FusedConv_4964" outputLayouts="bfyx" outputPrecisions="f16" primitiveType="ocl::fused_conv::ref___f16" runtimePrecision="f16" />
			<input>
				<port id="0" precision="FP16">
					<dim>-1</dim>
					<dim>8192</dim>
					<dim>-1</dim>
				</port>
				<port id="1" precision="I32">
					<dim>-1</dim>
				</port>
				<port id="2" precision="FP16">
					<dim>-1</dim>
					<dim>8192</dim>
					<dim>4</dim>
				</port>
				<port id="3" precision="I32">
					<dim>1</dim>
				</port>
			</input>
			<output>
				<port id="4" precision="FP16">
					<dim>-1</dim>
					<dim>8192</dim>
					<dim>-1</dim>
				</port>
				<port id="5" precision="FP16">
					<dim>-1</dim>
					<dim>8192</dim>
					<dim>-1</dim>
				</port>
			</output>
		</layer>
		<layer id="70" name="snapshot.linear_states.1.conv" type="Reorder">
			<data execOrder="2286" execTimeMcs="not_executed" originalLayersNames="snapshot.linear_states.1.conv" outputLayouts="bfyx" outputPrecisions="f16" primitiveType="reorder_data__f16" runtimePrecision="f16" />
			<input>
				<port id="0" precision="FP16">
					<dim>-1</dim>
					<dim>8192</dim>
					<dim>-1</dim>
				</port>
			</input>
			<output>
				<port id="1" precision="FP16">
					<dim>-1</dim>
					<dim>16</dim>
					<dim>8192</dim>
					<dim>4</dim>
				</port>
			</output>
		</layer>
		<layer id="71" name="Transpose_4965" type="Permute">
			<data execOrder="1044" execTimeMcs="not_executed" originalLayersNames="Transpose_4965" outputLayouts="bfyx" outputPrecisions="f16" primitiveType="permute_ref__f16" runtimePrecision="f16" />
			<input>
				<port id="0" precision="FP16">
					<dim>-1</dim>
					<dim>8192</dim>
					<dim>-1</dim>
				</port>
			</input>
			<output>
				<port id="1" precision="FP16">
					<dim>-1</dim>
					<dim>-1</dim>
					<dim>8192</dim>
				</port>
				<port id="2" precision="FP16">
					<dim>-1</dim>
					<dim>-1</dim>
					<dim>8192</dim>
				</port>
				<port id="3" precision="FP16">
					<dim>-1</dim>
					<dim>-1</dim>
					<dim>8192</dim>
				</port>
			</output>
		</layer>
		<layer id="72" name="Slice_4966" type="StridedSlice">
			<data execOrder="1049" execTimeMcs="not_executed" originalLayersNames="Slice_4966" outputLayouts="bfyx" outputPrecisions="f16" primitiveType="strided_slice_ref__f16" runtimePrecision="f16" />
			<input>
				<port id="0" precision="FP16">
					<dim>-1</dim>
					<dim>-1</dim>
					<dim>8192</dim>
				</port>
			</input>
			<output>
				<port id="1" precision="FP16">
					<dim>-1</dim>
					<dim>-1</dim>
					<dim>2048</dim>
				</port>
			</output>
		</layer>
		<layer id="73" name="Reshape_4969" type="Reshape">
			<data execOrder="1050" execTimeMcs="not_executed" originalLayersNames="Reshape_4969" outputLayouts="bfyx" outputPrecisions="f16" primitiveType="undef" runtimePrecision="f16" />
			<input>
				<port id="0" precision="FP16">
					<dim>-1</dim>
					<dim>-1</dim>
					<dim>2048</dim>
				</port>
			</input>
			<output>
				<port id="1" precision="FP16">
					<dim>-1</dim>
					<dim>-1</dim>
					<dim>16</dim>
					<dim>128</dim>
				</port>
			</output>
		</layer>
		<layer id="74" name="Slice_4967" type="StridedSlice">
			<data execOrder="1047" execTimeMcs="not_executed" originalLayersNames="Slice_4967" outputLayouts="bfyx" outputPrecisions="f16" primitiveType="strided_slice_ref__f16" runtimePrecision="f16" />
			<input>
				<port id="0" precision="FP16">
					<dim>-1</dim>
					<dim>-1</dim>
					<dim>8192</dim>
				</port>
			</input>
			<output>
				<port id="1" precision="FP16">
					<dim>-1</dim>
					<dim>-1</dim>
					<dim>2048</dim>
				</port>
			</output>
		</layer>
		<layer id="75" name="Reshape_4970" type="Reshape">
			<data execOrder="1048" execTimeMcs="not_executed" originalLayersNames="Reshape_4970" outputLayouts="bfyx" outputPrecisions="f16" primitiveType="undef" runtimePrecision="f16" />
			<input>
				<port id="0" precision="FP16">
					<dim>-1</dim>
					<dim>-1</dim>
					<dim>2048</dim>
				</port>
			</input>
			<output>
				<port id="1" precision="FP16">
					<dim>-1</dim>
					<dim>-1</dim>
					<dim>16</dim>
					<dim>128</dim>
				</port>
			</output>
		</layer>
		<layer id="76" name="Slice_4968" type="StridedSlice">
			<data execOrder="1045" execTimeMcs="not_executed" originalLayersNames="Slice_4968" outputLayouts="bfyx" outputPrecisions="f16" primitiveType="strided_slice_ref__f16" runtimePrecision="f16" />
			<input>
				<port id="0" precision="FP16">
					<dim>-1</dim>
					<dim>-1</dim>
					<dim>8192</dim>
				</port>
			</input>
			<output>
				<port id="1" precision="FP16">
					<dim>-1</dim>
					<dim>-1</dim>
					<dim>4096</dim>
				</port>
			</output>
		</layer>
		<layer id="77" name="Reshape_4971" type="Reshape">
			<data execOrder="1046" execTimeMcs="not_executed" originalLayersNames="Reshape_4971" outputLayouts="bfyx" outputPrecisions="f16" primitiveType="undef" runtimePrecision="f16" />
			<input>
				<port id="0" precision="FP16">
					<dim>-1</dim>
					<dim>-1</dim>
					<dim>4096</dim>
				</port>
			</input>
			<output>
				<port id="1" precision="FP16">
					<dim>-1</dim>
					<dim>-1</dim>
					<dim>32</dim>
					<dim>128</dim>
				</port>
			</output>
		</layer>
		<layer id="78" name="DynamicQuantize_115551" type="DynamicQuantize">
			<data execOrder="1036" execTimeMcs="not_executed" group_sizes="1, 1, -1" originalLayersNames="DynamicQuantize_115551" outputLayouts="bfyx" outputPrecisions="i8" primitiveType="dynamic_quantize_gpu_opt__f16" runtimePrecision="f16" />
			<input>
				<port id="0" precision="FP16">
					<dim>-1</dim>
					<dim>-1</dim>
					<dim>2560</dim>
				</port>
			</input>
			<output>
				<port id="1" precision="I8">
					<dim>-1</dim>
					<dim>-1</dim>
					<dim>2560</dim>
				</port>
				<port id="2" precision="I8">
					<dim>-1</dim>
					<dim>-1</dim>
					<dim>2560</dim>
				</port>
			</output>
		</layer>
		<layer id="79" name="MatMul_4951" type="FullyConnected">
			<data execOrder="1037" execTimeMcs="not_executed" originalLayersNames="MatMul_4951,Add_4973,MatMul_4951_scale_up" outputLayouts="bfyx" outputPrecisions="f16" primitiveType="undef" runtimePrecision="i8" />
			<input>
				<port id="0" precision="I8">
					<dim>-1</dim>
					<dim>-1</dim>
					<dim>2560</dim>
				</port>
				<port id="1" precision="I8">
					<dim>-1</dim>
					<dim>-1</dim>
					<dim>2560</dim>
				</port>
			</input>
			<output>
				<port id="2" precision="FP16">
					<dim>-1</dim>
					<dim>-1</dim>
					<dim>32</dim>
				</port>
			</output>
		</layer>
		<layer id="80" name="SoftPlus_4974" type="Activation">
			<data execOrder="1038" execTimeMcs="not_executed" originalLayersNames="SoftPlus_4974" outputLayouts="bfyx" outputPrecisions="f16" primitiveType="activation_ref__f16" runtimePrecision="f16" />
			<input>
				<port id="0" precision="FP16">
					<dim>-1</dim>
					<dim>-1</dim>
					<dim>32</dim>
				</port>
			</input>
			<output>
				<port id="1" precision="FP16">
					<dim>-1</dim>
					<dim>-1</dim>
					<dim>32</dim>
				</port>
			</output>
		</layer>
		<layer id="81" name="Negative_4977" type="Eltwise">
			<data execOrder="1039" execTimeMcs="not_executed" originalLayersNames="Negative_4977" outputLayouts="bfyx" outputPrecisions="f16" primitiveType="generic_eltwise_ref__f16" runtimePrecision="f16" />
			<input>
				<port id="0" precision="FP16">
					<dim>-1</dim>
					<dim>-1</dim>
					<dim>32</dim>
				</port>
			</input>
			<output>
				<port id="1" precision="FP16">
					<dim>-1</dim>
					<dim>-1</dim>
					<dim>32</dim>
				</port>
			</output>
		</layer>
		<layer id="82" name="DynamicQuantize_115557" type="DynamicQuantize">
			<data execOrder="1034" execTimeMcs="not_executed" group_sizes="1, 1, -1" originalLayersNames="DynamicQuantize_115557" outputLayouts="bfyx" outputPrecisions="i8" primitiveType="dynamic_quantize_gpu_opt__f16" runtimePrecision="f16" />
			<input>
				<port id="0" precision="FP16">
					<dim>-1</dim>
					<dim>-1</dim>
					<dim>2560</dim>
				</port>
			</input>
			<output>
				<port id="1" precision="I8">
					<dim>-1</dim>
					<dim>-1</dim>
					<dim>2560</dim>
				</port>
				<port id="2" precision="I8">
					<dim>-1</dim>
					<dim>-1</dim>
					<dim>2560</dim>
				</port>
			</output>
		</layer>
		<layer id="83" name="MatMul_4950" type="FullyConnected">
			<data execOrder="1035" execTimeMcs="not_executed" originalLayersNames="MatMul_4950,MatMul_4950_scale_up,Sigmoid_4972" outputLayouts="bfyx" outputPrecisions="f16" primitiveType="undef" runtimePrecision="i8" />
			<input>
				<port id="0" precision="I8">
					<dim>-1</dim>
					<dim>-1</dim>
					<dim>2560</dim>
				</port>
				<port id="1" precision="I8">
					<dim>-1</dim>
					<dim>-1</dim>
					<dim>2560</dim>
				</port>
			</input>
			<output>
				<port id="2" precision="FP16">
					<dim>-1</dim>
					<dim>-1</dim>
					<dim>32</dim>
				</port>
			</output>
		</layer>
		<layer id="84" name="Concat_4978" type="Concat">
			<data execOrder="1026" execTimeMcs="not_executed" originalLayersNames="Concat_4978" outputLayouts="bfyx" outputPrecisions="i32" primitiveType="concatenation_cpu_impl__i32" runtimePrecision="i32" />
			<input>
				<port id="0" precision="I32">
					<dim>1</dim>
				</port>
			</input>
			<output>
				<port id="1" precision="I32">
					<dim>4</dim>
				</port>
			</output>
		</layer>
		<layer id="85" name="Broadcast_4980" type="broadcast">
			<data execOrder="1027" execTimeMcs="not_executed" originalLayersNames="Broadcast_4980" outputLayouts="bfyx" outputPrecisions="f16" primitiveType="broadcast_cpu_impl__f16" runtimePrecision="f16" />
			<input>
				<port id="0" precision="I32">
					<dim>4</dim>
				</port>
			</input>
			<output>
				<port id="1" precision="FP16">
					<dim>-1</dim>
					<dim>32</dim>
					<dim>128</dim>
					<dim>128</dim>
				</port>
			</output>
		</layer>
		<layer id="86" name="LinearAttention_4983" type="linear_attention">
			<data execOrder="1051" execTimeMcs="not_executed" originalLayersNames="LinearAttention_4983" outputLayouts="bfyx" outputPrecisions="f16" primitiveType="ocl::linear_attention::ref___f16" runtimePrecision="f16" />
			<input>
				<port id="0" precision="FP16">
					<dim>-1</dim>
					<dim>-1</dim>
					<dim>16</dim>
					<dim>128</dim>
				</port>
				<port id="1" precision="FP16">
					<dim>-1</dim>
					<dim>-1</dim>
					<dim>16</dim>
					<dim>128</dim>
				</port>
				<port id="2" precision="FP16">
					<dim>-1</dim>
					<dim>-1</dim>
					<dim>32</dim>
					<dim>128</dim>
				</port>
				<port id="3" precision="FP16">
					<dim>-1</dim>
					<dim>-1</dim>
					<dim>32</dim>
				</port>
				<port id="4" precision="FP16">
					<dim>-1</dim>
					<dim>-1</dim>
					<dim>32</dim>
				</port>
				<port id="5" precision="FP16">
					<dim>-1</dim>
					<dim>32</dim>
					<dim>128</dim>
					<dim>128</dim>
				</port>
				<port id="6" precision="I32">
					<dim>1</dim>
				</port>
			</input>
			<output>
				<port id="7" precision="FP16">
					<dim>-1</dim>
					<dim>-1</dim>
					<dim>32</dim>
					<dim>128</dim>
				</port>
				<port id="8" precision="FP16">
					<dim>-1</dim>
					<dim>-1</dim>
					<dim>32</dim>
					<dim>128</dim>
				</port>
			</output>
		</layer>
		<layer id="87" name="snapshot.linear_states.1.recurrent" type="Reorder">
			<data execOrder="2285" execTimeMcs="not_executed" originalLayersNames="snapshot.linear_states.1.recurrent" outputLayouts="bfzyx" outputPrecisions="f16" primitiveType="reorder_data__f16" runtimePrecision="f16" />
			<input>
				<port id="0" precision="FP16">
					<dim>-1</dim>
					<dim>-1</dim>
					<dim>32</dim>
					<dim>128</dim>
				</port>
			</input>
			<output>
				<port id="1" precision="FP16">
					<dim>-1</dim>
					<dim>16</dim>
					<dim>32</dim>
					<dim>128</dim>
					<dim>128</dim>
				</port>
			</output>
		</layer>
		<layer id="88" name="DynamicQuantize_115563" type="DynamicQuantize">
			<data execOrder="1030" execTimeMcs="not_executed" group_sizes="1, 1, -1" originalLayersNames="DynamicQuantize_115563" outputLayouts="bfyx" outputPrecisions="i8" primitiveType="dynamic_quantize_gpu_opt__f16" runtimePrecision="f16" />
			<input>
				<port id="0" precision="FP16">
					<dim>-1</dim>
					<dim>-1</dim>
					<dim>2560</dim>
				</port>
			</input>
			<output>
				<port id="1" precision="I8">
					<dim>-1</dim>
					<dim>-1</dim>
					<dim>2560</dim>
				</port>
				<port id="2" precision="I8">
					<dim>-1</dim>
					<dim>-1</dim>
					<dim>2560</dim>
				</port>
			</output>
		</layer>
		<layer id="89" name="MatMul_4949" type="FullyConnected">
			<data execOrder="1031" execTimeMcs="not_executed" originalLayersNames="MatMul_4949,Multiply_102505" outputLayouts="bfyx" outputPrecisions="f16" primitiveType="undef" runtimePrecision="i8" />
			<input>
				<port id="0" precision="I8">
					<dim>-1</dim>
					<dim>-1</dim>
					<dim>2560</dim>
				</port>
				<port id="1" precision="I8">
					<dim>-1</dim>
					<dim>-1</dim>
					<dim>2560</dim>
				</port>
			</input>
			<output>
				<port id="2" precision="FP16">
					<dim>-1</dim>
					<dim>-1</dim>
					<dim>4096</dim>
				</port>
			</output>
		</layer>
		<layer id="90" name="Reshape_4952" type="Reshape">
			<data execOrder="1032" execTimeMcs="not_executed" originalLayersNames="Reshape_4952" outputLayouts="bfyx" outputPrecisions="f16" primitiveType="undef" runtimePrecision="f16" />
			<input>
				<port id="0" precision="FP16">
					<dim>-1</dim>
					<dim>-1</dim>
					<dim>4096</dim>
				</port>
			</input>
			<output>
				<port id="1" precision="FP16">
					<dim>-1</dim>
					<dim>-1</dim>
					<dim>32</dim>
					<dim>128</dim>
				</port>
			</output>
		</layer>
		<layer id="91" name="Swish_4990" type="Activation">
			<data execOrder="1033" execTimeMcs="not_executed" originalLayersNames="Swish_4990" outputLayouts="bfyx" outputPrecisions="f16" primitiveType="activation_ref__f16" runtimePrecision="f16" />
			<input>
				<port id="0" precision="FP16">
					<dim>-1</dim>
					<dim>-1</dim>
					<dim>32</dim>
					<dim>128</dim>
				</port>
			</input>
			<output>
				<port id="1" precision="FP16">
					<dim>-1</dim>
					<dim>-1</dim>
					<dim>32</dim>
					<dim>128</dim>
				</port>
			</output>
		</layer>
		<layer id="92" name="Multiply_4991" type="rms">
			<data execOrder="1052" execTimeMcs="not_executed" originalLayersNames="Multiply_4991,Multiply_4992,Multiply_102510" outputLayouts="bfyx" outputPrecisions="f16" primitiveType="rms_gpu_bfyx_opt__f16" runtimePrecision="f16" />
			<input>
				<port id="0" precision="FP16">
					<dim>-1</dim>
					<dim>-1</dim>
					<dim>32</dim>
					<dim>128</dim>
				</port>
				<port id="1" precision="FP16">
					<dim>-1</dim>
					<dim>-1</dim>
					<dim>32</dim>
					<dim>128</dim>
				</port>
			</input>
			<output>
				<port id="2" precision="FP16">
					<dim>-1</dim>
					<dim>-1</dim>
					<dim>32</dim>
					<dim>128</dim>
				</port>
			</output>
		</layer>
		<layer id="93" name="Reshape_4993" type="Reshape">
			<data execOrder="1053" execTimeMcs="not_executed" originalLayersNames="Reshape_4993" outputLayouts="bfyx" outputPrecisions="f16" primitiveType="undef" runtimePrecision="f16" />
			<input>
				<port id="0" precision="FP16">
					<dim>-1</dim>
					<dim>-1</dim>
					<dim>32</dim>
					<dim>128</dim>
				</port>
			</input>
			<output>
				<port id="1" precision="FP16">
					<dim>-1</dim>
					<dim>-1</dim>
					<dim>4096</dim>
				</port>
			</output>
		</layer>
		<layer id="94" name="DynamicQuantize_115569" type="DynamicQuantize">
			<data execOrder="1054" execTimeMcs="not_executed" group_sizes="1, 1, -1" originalLayersNames="DynamicQuantize_115569" outputLayouts="bfyx" outputPrecisions="i8" primitiveType="dynamic_quantize_gpu_opt__f16" runtimePrecision="f16" />
			<input>
				<port id="0" precision="FP16">
					<dim>-1</dim>
					<dim>-1</dim>
					<dim>4096</dim>
				</port>
			</input>
			<output>
				<port id="1" precision="I8">
					<dim>-1</dim>
					<dim>-1</dim>
					<dim>4096</dim>
				</port>
				<port id="2" precision="I8">
					<dim>-1</dim>
					<dim>-1</dim>
					<dim>4096</dim>
				</port>
			</output>
		</layer>
		<layer id="95" name="MatMul_4994" type="FullyConnected">
			<data execOrder="1055" execTimeMcs="not_executed" originalLayersNames="MatMul_4994,Add_4995" outputLayouts="bfyx" outputPrecisions="f16" primitiveType="undef" runtimePrecision="i8" />
			<input>
				<port id="0" precision="I8">
					<dim>-1</dim>
					<dim>-1</dim>
					<dim>4096</dim>
				</port>
				<port id="1" precision="I8">
					<dim>-1</dim>
					<dim>-1</dim>
					<dim>4096</dim>
				</port>
				<port id="2" precision="FP16">
					<dim>-1</dim>
					<dim>-1</dim>
					<dim>2560</dim>
				</port>
			</input>
			<output>
				<port id="3" precision="FP16">
					<dim>-1</dim>
					<dim>-1</dim>
					<dim>2560</dim>
				</port>
				<port id="4" precision="FP16">
					<dim>-1</dim>
					<dim>-1</dim>
					<dim>2560</dim>
				</port>
			</output>
		</layer>
		<layer id="96" name="RMS_4997" type="rms">
			<data execOrder="1056" execTimeMcs="not_executed" originalLayersNames="RMS_4997,MatMul_4998_scale_down" outputLayouts="bfyx" outputPrecisions="f16" primitiveType="rms_gpu_bfyx_opt__f16" runtimePrecision="f16" />
			<input>
				<port id="0" precision="FP16">
					<dim>-1</dim>
					<dim>-1</dim>
					<dim>2560</dim>
				</port>
			</input>
			<output>
				<port id="1" precision="FP16">
					<dim>-1</dim>
					<dim>-1</dim>
					<dim>2560</dim>
				</port>
				<port id="2" precision="FP16">
					<dim>-1</dim>
					<dim>-1</dim>
					<dim>2560</dim>
				</port>
			</output>
		</layer>
		<layer id="97" name="DynamicQuantize_115575" type="DynamicQuantize">
			<data execOrder="1059" execTimeMcs="not_executed" group_sizes="1, 1, -1" originalLayersNames="DynamicQuantize_115575" outputLayouts="bfyx" outputPrecisions="i8" primitiveType="dynamic_quantize_gpu_opt__f16" runtimePrecision="f16" />
			<input>
				<port id="0" precision="FP16">
					<dim>-1</dim>
					<dim>-1</dim>
					<dim>2560</dim>
				</port>
			</input>
			<output>
				<port id="1" precision="I8">
					<dim>-1</dim>
					<dim>-1</dim>
					<dim>2560</dim>
				</port>
				<port id="2" precision="I8">
					<dim>-1</dim>
					<dim>-1</dim>
					<dim>2560</dim>
				</port>
			</output>
		</layer>
		<layer id="98" name="DynamicQuantize_115581" type="DynamicQuantize">
			<data execOrder="1057" execTimeMcs="not_executed" group_sizes="1, 1, -1" originalLayersNames="DynamicQuantize_115581" outputLayouts="bfyx" outputPrecisions="i8" primitiveType="dynamic_quantize_gpu_opt__f16" runtimePrecision="f16" />
			<input>
				<port id="0" precision="FP16">
					<dim>-1</dim>
					<dim>-1</dim>
					<dim>2560</dim>
				</port>
			</input>
			<output>
				<port id="1" precision="I8">
					<dim>-1</dim>
					<dim>-1</dim>
					<dim>2560</dim>
				</port>
				<port id="2" precision="I8">
					<dim>-1</dim>
					<dim>-1</dim>
					<dim>2560</dim>
				</port>
			</output>
		</layer>
		<layer id="99" name="MatMul_4999" type="FullyConnected">
			<data execOrder="1058" execTimeMcs="not_executed" originalLayersNames="MatMul_4999" outputLayouts="bfyx" outputPrecisions="f16" primitiveType="undef" runtimePrecision="i8" />
			<input>
				<port id="0" precision="I8">
					<dim>-1</dim>
					<dim>-1</dim>
					<dim>2560</dim>
				</port>
				<port id="1" precision="I8">
					<dim>-1</dim>
					<dim>-1</dim>
					<dim>2560</dim>
				</port>
			</input>
			<output>
				<port id="2" precision="FP16">
					<dim>-1</dim>
					<dim>-1</dim>
					<dim>9216</dim>
				</port>
			</output>
		</layer>
		<layer id="100" name="MatMul_4998" type="FullyConnected">
			<data execOrder="1060" execTimeMcs="not_executed" originalLayersNames="MatMul_4998,MatMul_4998_scale_up,Swish_5000,Multiply_5001_mm" outputLayouts="bfyx" outputPrecisions="f16" primitiveType="undef" runtimePrecision="i8" />
			<input>
				<port id="0" precision="I8">
					<dim>-1</dim>
					<dim>-1</dim>
					<dim>2560</dim>
				</port>
				<port id="1" precision="I8">
					<dim>-1</dim>
					<dim>-1</dim>
					<dim>2560</dim>
				</port>
				<port id="2" precision="FP16">
					<dim>-1</dim>
					<dim>-1</dim>
					<dim>9216</dim>
				</port>
			</input>
			<output>
				<port id="3" precision="FP16">
					<dim>-1</dim>
					<dim>-1</dim>
					<dim>9216</dim>
				</port>
			</output>
		</layer>
		<layer id="101" name="DynamicQuantize_115587" type="DynamicQuantize">
			<data execOrder="1061" execTimeMcs="not_executed" group_sizes="1, 1, -1" originalLayersNames="DynamicQuantize_115587" outputLayouts="bfyx" outputPrecisions="i8" primitiveType="dynamic_quantize_gpu_opt__f16" runtimePrecision="f16" />
			<input>
				<port id="0" precision="FP16">
					<dim>-1</dim>
					<dim>-1</dim>
					<dim>9216</dim>
				</port>
			</input>
			<output>
				<port id="1" precision="I8">
					<dim>-1</dim>
					<dim>-1</dim>
					<dim>9216</dim>
				</port>
				<port id="2" precision="I8">
					<dim>-1</dim>
					<dim>-1</dim>
					<dim>9216</dim>
				</port>
			</output>
		</layer>
		<layer id="102" name="MatMul_5002" type="FullyConnected">
			<data execOrder="1062" execTimeMcs="not_executed" originalLayersNames="MatMul_5002,Add_5004" outputLayouts="bfyx" outputPrecisions="f16" primitiveType="undef" runtimePrecision="i8" />
			<input>
				<port id="0" precision="I8">
					<dim>-1</dim>
					<dim>-1</dim>
					<dim>9216</dim>
				</port>
				<port id="1" precision="I8">
					<dim>-1</dim>
					<dim>-1</dim>
					<dim>9216</dim>
				</port>
				<port id="2" precision="FP16">
					<dim>-1</dim>
					<dim>-1</dim>
					<dim>2560</dim>
				</port>
			</input>
			<output>
				<port id="3" precision="FP16">
					<dim>-1</dim>
					<dim>-1</dim>
					<dim>2560</dim>
				</port>
				<port id="4" precision="FP16">
					<dim>-1</dim>
					<dim>-1</dim>
					<dim>2560</dim>
				</port>
				<port id="5" precision="FP16">
					<dim>-1</dim>
					<dim>-1</dim>
					<dim>2560</dim>
				</port>
			</output>
		</layer>
		<layer id="103" name="RMS_5006" type="rms">
			<data execOrder="1063" execTimeMcs="not_executed" originalLayersNames="RMS_5006,Multiply_5009,MatMul_5010_scale_down" outputLayouts="bfyx" outputPrecisions="f16" primitiveType="rms_gpu_bfyx_opt__f16" runtimePrecision="f16" />
			<input>
				<port id="0" precision="FP16">
					<dim>-1</dim>
					<dim>-1</dim>
					<dim>2560</dim>
				</port>
				<port id="1" precision="FP16">
					<dim>-1</dim>
					<dim>-1</dim>
					<dim>1</dim>
				</port>
			</input>
			<output>
				<port id="2" precision="FP16">
					<dim>-1</dim>
					<dim>-1</dim>
					<dim>2560</dim>
				</port>
				<port id="3" precision="FP16">
					<dim>-1</dim>
					<dim>-1</dim>
					<dim>2560</dim>
				</port>
				<port id="4" precision="FP16">
					<dim>-1</dim>
					<dim>-1</dim>
					<dim>2560</dim>
				</port>
				<port id="5" precision="FP16">
					<dim>-1</dim>
					<dim>-1</dim>
					<dim>2560</dim>
				</port>
				<port id="6" precision="FP16">
					<dim>-1</dim>
					<dim>-1</dim>
					<dim>2560</dim>
				</port>
			</output>
		</layer>
		<layer id="104" name="DynamicQuantize_115593" type="DynamicQuantize">
			<data execOrder="1080" execTimeMcs="not_executed" group_sizes="1, 1, -1" originalLayersNames="DynamicQuantize_115593" outputLayouts="bfyx" outputPrecisions="i8" primitiveType="dynamic_quantize_gpu_opt__f16" runtimePrecision="f16" />
			<input>
				<port id="0" precision="FP16">
					<dim>-1</dim>
					<dim>-1</dim>
					<dim>2560</dim>
				</port>
			</input>
			<output>
				<port id="1" precision="I8">
					<dim>-1</dim>
					<dim>-1</dim>
					<dim>2560</dim>
				</port>
				<port id="2" precision="I8">
					<dim>-1</dim>
					<dim>-1</dim>
					<dim>2560</dim>
				</port>
			</output>
		</layer>
		<layer id="105" name="MatMul_5010" type="FullyConnected">
			<data execOrder="1081" execTimeMcs="not_executed" originalLayersNames="MatMul_5010,Multiply_102515" outputLayouts="bfyx" outputPrecisions="f16" primitiveType="undef" runtimePrecision="i8" />
			<input>
				<port id="0" precision="I8">
					<dim>-1</dim>
					<dim>-1</dim>
					<dim>2560</dim>
				</port>
				<port id="1" precision="I8">
					<dim>-1</dim>
					<dim>-1</dim>
					<dim>2560</dim>
				</port>
			</input>
			<output>
				<port id="2" precision="FP16">
					<dim>-1</dim>
					<dim>-1</dim>
					<dim>8192</dim>
				</port>
			</output>
		</layer>
		<layer id="106" name="Transpose_5015" type="Permute">
			<data execOrder="1082" execTimeMcs="not_executed" originalLayersNames="Transpose_5015" outputLayouts="bfyx" outputPrecisions="f16" primitiveType="permute_ref__f16" runtimePrecision="f16" />
			<input>
				<port id="0" precision="FP16">
					<dim>-1</dim>
					<dim>-1</dim>
					<dim>8192</dim>
				</port>
			</input>
			<output>
				<port id="1" precision="FP16">
					<dim>-1</dim>
					<dim>8192</dim>
					<dim>-1</dim>
				</port>
			</output>
		</layer>
		<layer id="107" name="ShapeOf_65934" type="shape_of">
			<data execOrder="1064" execTimeMcs="not_executed" originalLayersNames="ShapeOf_65934" outputLayouts="bfyx" outputPrecisions="i32" primitiveType="shape_of_cpu_impl__f16" runtimePrecision="f16" />
			<input>
				<port id="0" precision="FP16">
					<dim>-1</dim>
					<dim>-1</dim>
					<dim>2560</dim>
				</port>
			</input>
			<output>
				<port id="1" precision="I32">
					<dim>3</dim>
				</port>
			</output>
		</layer>
		<layer id="108" name="Gather_65937" type="Gather">
			<data execOrder="1065" execTimeMcs="not_executed" originalLayersNames="Gather_65937" outputLayouts="bfyx" outputPrecisions="i32" primitiveType="gather_cpu_impl__i32" runtimePrecision="i32" />
			<input>
				<port id="0" precision="I32">
					<dim>3</dim>
				</port>
			</input>
			<output>
				<port id="1" precision="I32">
					<dim>1</dim>
				</port>
				<port id="2" precision="I32">
					<dim>1</dim>
				</port>
			</output>
		</layer>
		<layer id="109" name="Concat_5020" type="Concat">
			<data execOrder="1068" execTimeMcs="not_executed" originalLayersNames="Concat_5020" outputLayouts="bfyx" outputPrecisions="i32" primitiveType="concatenation_cpu_impl__i32" runtimePrecision="i32" />
			<input>
				<port id="0" precision="I32">
					<dim>1</dim>
				</port>
			</input>
			<output>
				<port id="1" precision="I32">
					<dim>3</dim>
				</port>
			</output>
		</layer>
		<layer id="110" name="Broadcast_5022" type="broadcast">
			<data execOrder="1069" execTimeMcs="not_executed" originalLayersNames="Broadcast_5022" outputLayouts="bfyx" outputPrecisions="f16" primitiveType="broadcast_cpu_impl__f16" runtimePrecision="f16" />
			<input>
				<port id="0" precision="I32">
					<dim>3</dim>
				</port>
			</input>
			<output>
				<port id="1" precision="FP16">
					<dim>-1</dim>
					<dim>8192</dim>
					<dim>4</dim>
				</port>
			</output>
		</layer>
		<layer id="111" name="FusedConv_5026" type="fused_conv">
			<data execOrder="1083" execTimeMcs="not_executed" originalLayersNames="FusedConv_5026" outputLayouts="bfyx" outputPrecisions="f16" primitiveType="ocl::fused_conv::ref___f16" runtimePrecision="f16" />
			<input>
				<port id="0" precision="FP16">
					<dim>-1</dim>
					<dim>8192</dim>
					<dim>-1</dim>
				</port>
				<port id="1" precision="I32">
					<dim>-1</dim>
				</port>
				<port id="2" precision="FP16">
					<dim>-1</dim>
					<dim>8192</dim>
					<dim>4</dim>
				</port>
				<port id="3" precision="I32">
					<dim>1</dim>
				</port>
			</input>
			<output>
				<port id="4" precision="FP16">
					<dim>-1</dim>
					<dim>8192</dim>
					<dim>-1</dim>
				</port>
				<port id="5" precision="FP16">
					<dim>-1</dim>
					<dim>8192</dim>
					<dim>-1</dim>
				</port>
			</output>
		</layer>
		<layer id="112" name="Transpose_5027" type="Permute">
			<data execOrder="1084" execTimeMcs="not_executed" originalLayersNames="Transpose_5027" outputLayouts="bfyx" outputPrecisions="f16" primitiveType="permute_ref__f16" runtimePrecision="f16" />
			<input>
				<port id="0" precision="FP16">
					<dim>-1</dim>
					<dim>8192</dim>
					<dim>-1</dim>
				</port>
			</input>
			<output>
				<port id="1" precision="FP16">
					<dim>-1</dim>
					<dim>-1</dim>
					<dim>8192</dim>
				</port>
				<port id="2" precision="FP16">
					<dim>-1</dim>
					<dim>-1</dim>
					<dim>8192</dim>
				</port>
				<port id="3" precision="FP16">
					<dim>-1</dim>
					<dim>-1</dim>
					<dim>8192</dim>
				</port>
			</output>
		</layer>
		<layer id="113" name="Slice_5028" type="StridedSlice">
			<data execOrder="1089" execTimeMcs="not_executed" originalLayersNames="Slice_5028" outputLayouts="bfyx" outputPrecisions="f16" primitiveType="strided_slice_ref__f16" runtimePrecision="f16" />
			<input>
				<port id="0" precision="FP16">
					<dim>-1</dim>
					<dim>-1</dim>
					<dim>8192</dim>
				</port>
			</input>
			<output>
				<port id="1" precision="FP16">
					<dim>-1</dim>
					<dim>-1</dim>
					<dim>2048</dim>
				</port>
			</output>
		</layer>
		<layer id="114" name="Reshape_5031" type="Reshape">
			<data execOrder="1090" execTimeMcs="not_executed" originalLayersNames="Reshape_5031" outputLayouts="bfyx" outputPrecisions="f16" primitiveType="undef" runtimePrecision="f16" />
			<input>
				<port id="0" precision="FP16">
					<dim>-1</dim>
					<dim>-1</dim>
					<dim>2048</dim>
				</port>
			</input>
			<output>
				<port id="1" precision="FP16">
					<dim>-1</dim>
					<dim>-1</dim>
					<dim>16</dim>
					<dim>128</dim>
				</port>
			</output>
		</layer>
		<layer id="115" name="Slice_5029" type="StridedSlice">
			<data execOrder="1087" execTimeMcs="not_executed" originalLayersNames="Slice_5029" outputLayouts="bfyx" outputPrecisions="f16" primitiveType="strided_slice_ref__f16" runtimePrecision="f16" />
			<input>
				<port id="0" precision="FP16">
					<dim>-1</dim>
					<dim>-1</dim>
					<dim>8192</dim>
				</port>
			</input>
			<output>
				<port id="1" precision="FP16">
					<dim>-1</dim>
					<dim>-1</dim>
					<dim>2048</dim>
				</port>
			</output>
		</layer>
		<layer id="116" name="Reshape_5032" type="Reshape">
			<data execOrder="1088" execTimeMcs="not_executed" originalLayersNames="Reshape_5032" outputLayouts="bfyx" outputPrecisions="f16" primitiveType="undef" runtimePrecision="f16" />
			<input>
				<port id="0" precision="FP16">
					<dim>-1</dim>
					<dim>-1</dim>
					<dim>2048</dim>
				</port>
			</input>
			<output>
				<port id="1" precision="FP16">
					<dim>-1</dim>
					<dim>-1</dim>
					<dim>16</dim>
					<dim>128</dim>
				</port>
			</output>
		</layer>
		<layer id="117" name="Slice_5030" type="StridedSlice">
			<data execOrder="1085" execTimeMcs="not_executed" originalLayersNames="Slice_5030" outputLayouts="bfyx" outputPrecisions="f16" primitiveType="strided_slice_ref__f16" runtimePrecision="f16" />
			<input>
				<port id="0" precision="FP16">
					<dim>-1</dim>
					<dim>-1</dim>
					<dim>8192</dim>
				</port>
			</input>
			<output>
				<port id="1" precision="FP16">
					<dim>-1</dim>
					<dim>-1</dim>
					<dim>4096</dim>
				</port>
			</output>
		</layer>
		<layer id="118" name="Reshape_5033" type="Reshape">
			<data execOrder="1086" execTimeMcs="not_executed" originalLayersNames="Reshape_5033" outputLayouts="bfyx" outputPrecisions="f16" primitiveType="undef" runtimePrecision="f16" />
			<input>
				<port id="0" precision="FP16">
					<dim>-1</dim>
					<dim>-1</dim>
					<dim>4096</dim>
				</port>
			</input>
			<output>
				<port id="1" precision="FP16">
					<dim>-1</dim>
					<dim>-1</dim>
					<dim>32</dim>
					<dim>128</dim>
				</port>
			</output>
		</layer>
		<layer id="119" name="DynamicQuantize_115599" type="DynamicQuantize">
			<data execOrder="1076" execTimeMcs="not_executed" group_sizes="1, 1, -1" originalLayersNames="DynamicQuantize_115599" outputLayouts="bfyx" outputPrecisions="i8" primitiveType="dynamic_quantize_gpu_opt__f16" runtimePrecision="f16" />
			<input>
				<port id="0" precision="FP16">
					<dim>-1</dim>
					<dim>-1</dim>
					<dim>2560</dim>
				</port>
			</input>
			<output>
				<port id="1" precision="I8">
					<dim>-1</dim>
					<dim>-1</dim>
					<dim>2560</dim>
				</port>
				<port id="2" precision="I8">
					<dim>-1</dim>
					<dim>-1</dim>
					<dim>2560</dim>
				</port>
			</output>
		</layer>
		<layer id="120" name="MatMul_5013" type="FullyConnected">
			<data execOrder="1077" execTimeMcs="not_executed" originalLayersNames="MatMul_5013,Add_5035,MatMul_5013_scale_up" outputLayouts="bfyx" outputPrecisions="f16" primitiveType="undef" runtimePrecision="i8" />
			<input>
				<port id="0" precision="I8">
					<dim>-1</dim>
					<dim>-1</dim>
					<dim>2560</dim>
				</port>
				<port id="1" precision="I8">
					<dim>-1</dim>
					<dim>-1</dim>
					<dim>2560</dim>
				</port>
			</input>
			<output>
				<port id="2" precision="FP16">
					<dim>-1</dim>
					<dim>-1</dim>
					<dim>32</dim>
				</port>
			</output>
		</layer>
		<layer id="121" name="SoftPlus_5036" type="Activation">
			<data execOrder="1078" execTimeMcs="not_executed" originalLayersNames="SoftPlus_5036" outputLayouts="bfyx" outputPrecisions="f16" primitiveType="activation_ref__f16" runtimePrecision="f16" />
			<input>
				<port id="0" precision="FP16">
					<dim>-1</dim>
					<dim>-1</dim>
					<dim>32</dim>
				</port>
			</input>
			<output>
				<port id="1" precision="FP16">
					<dim>-1</dim>
					<dim>-1</dim>
					<dim>32</dim>
				</port>
			</output>
		</layer>
		<layer id="122" name="Negative_5039" type="Eltwise">
			<data execOrder="1079" execTimeMcs="not_executed" originalLayersNames="Negative_5039" outputLayouts="bfyx" outputPrecisions="f16" primitiveType="generic_eltwise_ref__f16" runtimePrecision="f16" />
			<input>
				<port id="0" precision="FP16">
					<dim>-1</dim>
					<dim>-1</dim>
					<dim>32</dim>
				</port>
			</input>
			<output>
				<port id="1" precision="FP16">
					<dim>-1</dim>
					<dim>-1</dim>
					<dim>32</dim>
				</port>
			</output>
		</layer>
		<layer id="123" name="DynamicQuantize_115605" type="DynamicQuantize">
			<data execOrder="1074" execTimeMcs="not_executed" group_sizes="1, 1, -1" originalLayersNames="DynamicQuantize_115605" outputLayouts="bfyx" outputPrecisions="i8" primitiveType="dynamic_quantize_gpu_opt__f16" runtimePrecision="f16" />
			<input>
				<port id="0" precision="FP16">
					<dim>-1</dim>
					<dim>-1</dim>
					<dim>2560</dim>
				</port>
			</input>
			<output>
				<port id="1" precision="I8">
					<dim>-1</dim>
					<dim>-1</dim>
					<dim>2560</dim>
				</port>
				<port id="2" precision="I8">
					<dim>-1</dim>
					<dim>-1</dim>
					<dim>2560</dim>
				</port>
			</output>
		</layer>
		<layer id="124" name="MatMul_5012" type="FullyConnected">
			<data execOrder="1075" execTimeMcs="not_executed" originalLayersNames="MatMul_5012,MatMul_5012_scale_up,Sigmoid_5034" outputLayouts="bfyx" outputPrecisions="f16" primitiveType="undef" runtimePrecision="i8" />
			<input>
				<port id="0" precision="I8">
					<dim>-1</dim>
					<dim>-1</dim>
					<dim>2560</dim>
				</port>
				<port id="1" precision="I8">
					<dim>-1</dim>
					<dim>-1</dim>
					<dim>2560</dim>
				</port>
			</input>
			<output>
				<port id="2" precision="FP16">
					<dim>-1</dim>
					<dim>-1</dim>
					<dim>32</dim>
				</port>
			</output>
		</layer>
		<layer id="125" name="Concat_5040" type="Concat">
			<data execOrder="1066" execTimeMcs="not_executed" originalLayersNames="Concat_5040" outputLayouts="bfyx" outputPrecisions="i32" primitiveType="concatenation_cpu_impl__i32" runtimePrecision="i32" />
			<input>
				<port id="0" precision="I32">
					<dim>1</dim>
				</port>
			</input>
			<output>
				<port id="1" precision="I32">
					<dim>4</dim>
				</port>
			</output>
		</layer>
		<layer id="126" name="Broadcast_5042" type="broadcast">
			<data execOrder="1067" execTimeMcs="not_executed" originalLayersNames="Broadcast_5042" outputLayouts="bfyx" outputPrecisions="f16" primitiveType="broadcast_cpu_impl__f16" runtimePrecision="f16" />
			<input>
				<port id="0" precision="I32">
					<dim>4</dim>
				</port>
			</input>
			<output>
				<port id="1" precision="FP16">
					<dim>-1</dim>
					<dim>32</dim>
					<dim>128</dim>
					<dim>128</dim>
				</port>
			</output>
		</layer>
		<layer id="127" name="LinearAttention_5045" type="linear_attention">
			<data execOrder="1091" execTimeMcs="not_executed" originalLayersNames="LinearAttention_5045" outputLayouts="bfyx" outputPrecisions="f16" primitiveType="ocl::linear_attention::ref___f16" runtimePrecision="f16" />
			<input>
				<port id="0" precision="FP16">
					<dim>-1</dim>
					<dim>-1</dim>
					<dim>16</dim>
					<dim>128</dim>
				</port>
				<port id="1" precision="FP16">
					<dim>-1</dim>
					<dim>-1</dim>
					<dim>16</dim>
					<dim>128</dim>
				</port>
				<port id="2" precision="FP16">
					<dim>-1</dim>
					<dim>-1</dim>
					<dim>32</dim>
					<dim>128</dim>
				</port>
				<port id="3" precision="FP16">
					<dim>-1</dim>
					<dim>-1</dim>
					<dim>32</dim>
				</port>
				<port id="4" precision="FP16">
					<dim>-1</dim>
					<dim>-1</dim>
					<dim>32</dim>
				</port>
				<port id="5" precision="FP16">
					<dim>-1</dim>
					<dim>32</dim>
					<dim>128</dim>
					<dim>128</dim>
				</port>
				<port id="6" precision="I32">
					<dim>1</dim>
				</port>
			</input>
			<output>
				<port id="7" precision="FP16">
					<dim>-1</dim>
					<dim>-1</dim>
					<dim>32</dim>
					<dim>128</dim>
				</port>
				<port id="8" precision="FP16">
					<dim>-1</dim>
					<dim>-1</dim>
					<dim>32</dim>
					<dim>128</dim>
				</port>
			</output>
		</layer>
		<layer id="128" name="DynamicQuantize_115611" type="DynamicQuantize">
			<data execOrder="1070" execTimeMcs="not_executed" group_sizes="1, 1, -1" originalLayersNames="DynamicQuantize_115611" outputLayouts="bfyx" outputPrecisions="i8" primitiveType="dynamic_quantize_gpu_opt__f16" runtimePrecision="f16" />
			<input>
				<port id="0" precision="FP16">
					<dim>-1</dim>
					<dim>-1</dim>
					<dim>2560</dim>
				</port>
			</input>
			<output>
				<port id="1" precision="I8">
					<dim>-1</dim>
					<dim>-1</dim>
					<dim>2560</dim>
				</port>
				<port id="2" precision="I8">
					<dim>-1</dim>
					<dim>-1</dim>
					<dim>2560</dim>
				</port>
			</output>
		</layer>
		<layer id="129" name="MatMul_5011" type="FullyConnected">
			<data execOrder="1071" execTimeMcs="not_executed" originalLayersNames="MatMul_5011,Multiply_102520" outputLayouts="bfyx" outputPrecisions="f16" primitiveType="undef" runtimePrecision="i8" />
			<input>
				<port id="0" precision="I8">
					<dim>-1</dim>
					<dim>-1</dim>
					<dim>2560</dim>
				</port>
				<port id="1" precision="I8">
					<dim>-1</dim>
					<dim>-1</dim>
					<dim>2560</dim>
				</port>
			</input>
			<output>
				<port id="2" precision="FP16">
					<dim>-1</dim>
					<dim>-1</dim>
					<dim>4096</dim>
				</port>
			</output>
		</layer>
		<layer id="130" name="Reshape_5014" type="Reshape">
			<data execOrder="1072" execTimeMcs="not_executed" originalLayersNames="Reshape_5014" outputLayouts="bfyx" outputPrecisions="f16" primitiveType="undef" runtimePrecision="f16" />
			<input>
				<port id="0" precision="FP16">
					<dim>-1</dim>
					<dim>-1</dim>
					<dim>4096</dim>
				</port>
			</input>
			<output>
				<port id="1" precision="FP16">
					<dim>-1</dim>
					<dim>-1</dim>
					<dim>32</dim>
					<dim>128</dim>
				</port>
			</output>
		</layer>
		<layer id="131" name="Swish_5052" type="Activation">
			<data execOrder="1073" execTimeMcs="not_executed" originalLayersNames="Swish_5052" outputLayouts="bfyx" outputPrecisions="f16" primitiveType="activation_ref__f16" runtimePrecision="f16" />
			<input>
				<port id="0" precision="FP16">
					<dim>-1</dim>
					<dim>-1</dim>
					<dim>32</dim>
					<dim>128</dim>
				</port>
			</input>
			<output>
				<port id="1" precision="FP16">
					<dim>-1</dim>
					<dim>-1</dim>
					<dim>32</dim>
					<dim>128</dim>
				</port>
			</output>
		</layer>
		<layer id="132" name="Multiply_5053" type="rms">
			<data execOrder="1092" execTimeMcs="not_executed" originalLayersNames="Multiply_5053,Multiply_5054,Multiply_102525" outputLayouts="bfyx" outputPrecisions="f16" primitiveType="rms_gpu_bfyx_opt__f16" runtimePrecision="f16" />
			<input>
				<port id="0" precision="FP16">
					<dim>-1</dim>
					<dim>-1</dim>
					<dim>32</dim>
					<dim>128</dim>
				</port>
				<port id="1" precision="FP16">
					<dim>-1</dim>
					<dim>-1</dim>
					<dim>32</dim>
					<dim>128</dim>
				</port>
			</input>
			<output>
				<port id="2" precision="FP16">
					<dim>-1</dim>
					<dim>-1</dim>
					<dim>32</dim>
					<dim>128</dim>
				</port>
			</output>
		</layer>
		<layer id="133" name="Reshape_5055" type="Reshape">
			<data execOrder="1093" execTimeMcs="not_executed" originalLayersNames="Reshape_5055" outputLayouts="bfyx" outputPrecisions="f16" primitiveType="undef" runtimePrecision="f16" />
			<input>
				<port id="0" precision="FP16">
					<dim>-1</dim>
					<dim>-1</dim>
					<dim>32</dim>
					<dim>128</dim>
				</port>
			</input>
			<output>
				<port id="1" precision="FP16">
					<dim>-1</dim>
					<dim>-1</dim>
					<dim>4096</dim>
				</port>
			</output>
		</layer>
		<layer id="134" name="DynamicQuantize_115617" type="DynamicQuantize">
			<data execOrder="1094" execTimeMcs="not_executed" group_sizes="1, 1, -1" originalLayersNames="DynamicQuantize_115617" outputLayouts="bfyx" outputPrecisions="i8" primitiveType="dynamic_quantize_gpu_opt__f16" runtimePrecision="f16" />
			<input>
				<port id="0" precision="FP16">
					<dim>-1</dim>
					<dim>-1</dim>
					<dim>4096</dim>
				</port>
			</input>
			<output>
				<port id="1" precision="I8">
					<dim>-1</dim>
					<dim>-1</dim>
					<dim>4096</dim>
				</port>
				<port id="2" precision="I8">
					<dim>-1</dim>
					<dim>-1</dim>
					<dim>4096</dim>
				</port>
			</output>
		</layer>
		<layer id="135" name="MatMul_5056" type="FullyConnected">
			<data execOrder="1095" execTimeMcs="not_executed" originalLayersNames="MatMul_5056,Add_5057" outputLayouts="bfyx" outputPrecisions="f16" primitiveType="undef" runtimePrecision="i8" />
			<input>
				<port id="0" precision="I8">
					<dim>-1</dim>
					<dim>-1</dim>
					<dim>4096</dim>
				</port>
				<port id="1" precision="I8">
					<dim>-1</dim>
					<dim>-1</dim>
					<dim>4096</dim>
				</port>
				<port id="2" precision="FP16">
					<dim>-1</dim>
					<dim>-1</dim>
					<dim>2560</dim>
				</port>
			</input>
			<output>
				<port id="3" precision="FP16">
					<dim>-1</dim>
					<dim>-1</dim>
					<dim>2560</dim>
				</port>
				<port id="4" precision="FP16">
					<dim>-1</dim>
					<dim>-1</dim>
					<dim>2560</dim>
				</port>
			</output>
		</layer>
		<layer id="136" name="RMS_5059" type="rms">
			<data execOrder="1096" execTimeMcs="not_executed" originalLayersNames="RMS_5059,MatMul_5060_scale_down" outputLayouts="bfyx" outputPrecisions="f16" primitiveType="rms_gpu_bfyx_opt__f16" runtimePrecision="f16" />
			<input>
				<port id="0" precision="FP16">
					<dim>-1</dim>
					<dim>-1</dim>
					<dim>2560</dim>
				</port>
			</input>
			<output>
				<port id="1" precision="FP16">
					<dim>-1</dim>
					<dim>-1</dim>
					<dim>2560</dim>
				</port>
				<port id="2" precision="FP16">
					<dim>-1</dim>
					<dim>-1</dim>
					<dim>2560</dim>
				</port>
			</output>
		</layer>
		<layer id="137" name="DynamicQuantize_115623" type="DynamicQuantize">
			<data execOrder="1099" execTimeMcs="not_executed" group_sizes="1, 1, -1" originalLayersNames="DynamicQuantize_115623" outputLayouts="bfyx" outputPrecisions="i8" primitiveType="dynamic_quantize_gpu_opt__f16" runtimePrecision="f16" />
			<input>
				<port id="0" precision="FP16">
					<dim>-1</dim>
					<dim>-1</dim>
					<dim>2560</dim>
				</port>
			</input>
			<output>
				<port id="1" precision="I8">
					<dim>-1</dim>
					<dim>-1</dim>
					<dim>2560</dim>
				</port>
				<port id="2" precision="I8">
					<dim>-1</dim>
					<dim>-1</dim>
					<dim>2560</dim>
				</port>
			</output>
		</layer>
		<layer id="138" name="DynamicQuantize_115629" type="DynamicQuantize">
			<data execOrder="1097" execTimeMcs="not_executed" group_sizes="1, 1, -1" originalLayersNames="DynamicQuantize_115629" outputLayouts="bfyx" outputPrecisions="i8" primitiveType="dynamic_quantize_gpu_opt__f16" runtimePrecision="f16" />
			<input>
				<port id="0" precision="FP16">
					<dim>-1</dim>
					<dim>-1</dim>
					<dim>2560</dim>
				</port>
			</input>
			<output>
				<port id="1" precision="I8">
					<dim>-1</dim>
					<dim>-1</dim>
					<dim>2560</dim>
				</port>
				<port id="2" precision="I8">
					<dim>-1</dim>
					<dim>-1</dim>
					<dim>2560</dim>
				</port>
			</output>
		</layer>
		<layer id="139" name="MatMul_5061" type="FullyConnected">
			<data execOrder="1098" execTimeMcs="not_executed" originalLayersNames="MatMul_5061" outputLayouts="bfyx" outputPrecisions="f16" primitiveType="undef" runtimePrecision="i8" />
			<input>
				<port id="0" precision="I8">
					<dim>-1</dim>
					<dim>-1</dim>
					<dim>2560</dim>
				</port>
				<port id="1" precision="I8">
					<dim>-1</dim>
					<dim>-1</dim>
					<dim>2560</dim>
				</port>
			</input>
			<output>
				<port id="2" precision="FP16">
					<dim>-1</dim>
					<dim>-1</dim>
					<dim>9216</dim>
				</port>
			</output>
		</layer>
		<layer id="140" name="MatMul_5060" type="FullyConnected">
			<data execOrder="1100" execTimeMcs="not_executed" originalLayersNames="MatMul_5060,MatMul_5060_scale_up,Swish_5062,Multiply_5063_mm" outputLayouts="bfyx" outputPrecisions="f16" primitiveType="undef" runtimePrecision="i8" />
			<input>
				<port id="0" precision="I8">
					<dim>-1</dim>
					<dim>-1</dim>
					<dim>2560</dim>
				</port>
				<port id="1" precision="I8">
					<dim>-1</dim>
					<dim>-1</dim>
					<dim>2560</dim>
				</port>
				<port id="2" precision="FP16">
					<dim>-1</dim>
					<dim>-1</dim>
					<dim>9216</dim>
				</port>
			</input>
			<output>
				<port id="3" precision="FP16">
					<dim>-1</dim>
					<dim>-1</dim>
					<dim>9216</dim>
				</port>
			</output>
		</layer>
		<layer id="141" name="DynamicQuantize_115635" type="DynamicQuantize">
			<data execOrder="1101" execTimeMcs="not_executed" group_sizes="1, 1, -1" originalLayersNames="DynamicQuantize_115635" outputLayouts="bfyx" outputPrecisions="i8" primitiveType="dynamic_quantize_gpu_opt__f16" runtimePrecision="f16" />
			<input>
				<port id="0" precision="FP16">
					<dim>-1</dim>
					<dim>-1</dim>
					<dim>9216</dim>
				</port>
			</input>
			<output>
				<port id="1" precision="I8">
					<dim>-1</dim>
					<dim>-1</dim>
					<dim>9216</dim>
				</port>
				<port id="2" precision="I8">
					<dim>-1</dim>
					<dim>-1</dim>
					<dim>9216</dim>
				</port>
			</output>
		</layer>
		<layer id="142" name="MatMul_5064" type="FullyConnected">
			<data execOrder="1102" execTimeMcs="not_executed" originalLayersNames="MatMul_5064,Add_5065" outputLayouts="bfyx" outputPrecisions="f16" primitiveType="undef" runtimePrecision="i8" />
			<input>
				<port id="0" precision="I8">
					<dim>-1</dim>
					<dim>-1</dim>
					<dim>9216</dim>
				</port>
				<port id="1" precision="I8">
					<dim>-1</dim>
					<dim>-1</dim>
					<dim>9216</dim>
				</port>
				<port id="2" precision="FP16">
					<dim>-1</dim>
					<dim>-1</dim>
					<dim>2560</dim>
				</port>
			</input>
			<output>
				<port id="3" precision="FP16">
					<dim>-1</dim>
					<dim>-1</dim>
					<dim>2560</dim>
				</port>
				<port id="4" precision="FP16">
					<dim>-1</dim>
					<dim>-1</dim>
					<dim>2560</dim>
				</port>
			</output>
		</layer>
		<layer id="143" name="RMS_5067" type="rms">
			<data execOrder="1103" execTimeMcs="not_executed" originalLayersNames="RMS_5067,MatMul_5076_scale_down" outputLayouts="bfyx" outputPrecisions="f16" primitiveType="rms_gpu_bfyx_opt__f16" runtimePrecision="f16" />
			<input>
				<port id="0" precision="FP16">
					<dim>-1</dim>
					<dim>-1</dim>
					<dim>2560</dim>
				</port>
			</input>
			<output>
				<port id="1" precision="FP16">
					<dim>-1</dim>
					<dim>-1</dim>
					<dim>2560</dim>
				</port>
			</output>
		</layer>
		<layer id="144" name="DynamicQuantize_115641" type="DynamicQuantize">
			<data execOrder="1104" execTimeMcs="not_executed" group_sizes="1, 1, -1" originalLayersNames="DynamicQuantize_115641" outputLayouts="bfyx" outputPrecisions="i8" primitiveType="dynamic_quantize_gpu_opt__f16" runtimePrecision="f16" />
			<input>
				<port id="0" precision="FP16">
					<dim>-1</dim>
					<dim>-1</dim>
					<dim>2560</dim>
				</port>
			</input>
			<output>
				<port id="1" precision="I8">
					<dim>-1</dim>
					<dim>-1</dim>
					<dim>2560</dim>
				</port>
				<port id="2" precision="I8">
					<dim>-1</dim>
					<dim>-1</dim>
					<dim>2560</dim>
				</port>
			</output>
		</layer>
		<layer id="145" name="MatMul_5076_fused_3FCs" type="FullyConnected">
			<data execOrder="1105" execTimeMcs="not_executed" originalLayersNames="MatMul_5076_fused_3FCs" outputLayouts="bfyx" outputPrecisions="f16" primitiveType="undef" runtimePrecision="i8" />
			<input>
				<port id="0" precision="I8">
					<dim>-1</dim>
					<dim>-1</dim>
					<dim>2560</dim>
				</port>
				<port id="1" precision="I8">
					<dim>-1</dim>
					<dim>-1</dim>
					<dim>2560</dim>
				</port>
			</input>
			<output>
				<port id="2" precision="FP16">
					<dim>-1</dim>
					<dim>-1</dim>
					<dim>10240</dim>
				</port>
				<port id="3" precision="FP16">
					<dim>-1</dim>
					<dim>-1</dim>
					<dim>10240</dim>
				</port>
				<port id="4" precision="FP16">
					<dim>-1</dim>
					<dim>-1</dim>
					<dim>10240</dim>
				</port>
			</output>
		</layer>
		<layer id="146" name="MatMul_5076_split.out1" type="Crop">
			<data execOrder="1110" execTimeMcs="not_executed" originalLayersNames="MatMul_5076_split" outputLayouts="bfyx" outputPrecisions="f16" primitiveType="generic_eltwise_ref__f16" runtimePrecision="f16" />
			<input>
				<port id="0" precision="FP16">
					<dim>-1</dim>
					<dim>-1</dim>
					<dim>10240</dim>
				</port>
			</input>
			<output>
				<port id="1" precision="FP16">
					<dim>-1</dim>
					<dim>-1</dim>
					<dim>8192</dim>
				</port>
			</output>
		</layer>
		<layer id="147" name="Reshape_5070" type="Reshape">
			<data execOrder="1111" execTimeMcs="not_executed" originalLayersNames="Reshape_5070" outputLayouts="bfyx" outputPrecisions="f16" primitiveType="undef" runtimePrecision="f16" />
			<input>
				<port id="0" precision="FP16">
					<dim>-1</dim>
					<dim>-1</dim>
					<dim>8192</dim>
				</port>
			</input>
			<output>
				<port id="1" precision="FP16">
					<dim>-1</dim>
					<dim>-1</dim>
					<dim>16</dim>
					<dim>512</dim>
				</port>
				<port id="2" precision="FP16">
					<dim>-1</dim>
					<dim>-1</dim>
					<dim>16</dim>
					<dim>512</dim>
				</port>
			</output>
		</layer>
		<layer id="148" name="Slice_5072" type="StridedSlice">
			<data execOrder="1115" execTimeMcs="not_executed" originalLayersNames="Slice_5072" outputLayouts="bfyx" outputPrecisions="f16" primitiveType="strided_slice_ref__f16" runtimePrecision="f16" />
			<input>
				<port id="0" precision="FP16">
					<dim>-1</dim>
					<dim>-1</dim>
					<dim>16</dim>
					<dim>512</dim>
				</port>
			</input>
			<output>
				<port id="1" precision="FP16">
					<dim>-1</dim>
					<dim>-1</dim>
					<dim>16</dim>
					<dim>256</dim>
				</port>
			</output>
		</layer>
		<layer id="149" name="RMS_5082" type="rms">
			<data execOrder="1116" execTimeMcs="not_executed" originalLayersNames="RMS_5082" outputLayouts="bfyx" outputPrecisions="f16" primitiveType="rms_gpu_bfyx_opt__f16" runtimePrecision="f16" />
			<input>
				<port id="0" precision="FP16">
					<dim>-1</dim>
					<dim>-1</dim>
					<dim>16</dim>
					<dim>256</dim>
				</port>
			</input>
			<output>
				<port id="1" precision="FP16">
					<dim>-1</dim>
					<dim>-1</dim>
					<dim>16</dim>
					<dim>256</dim>
				</port>
			</output>
		</layer>
		<layer id="150" name="Convert_78037" type="Reorder">
			<data execOrder="2" execTimeMcs="not_executed" originalLayersNames="Convert_78037" outputLayouts="bfyx" outputPrecisions="i32" primitiveType="reorder_data__i64" runtimePrecision="i64" />
			<input>
				<port id="0" precision="I64">
					<dim>3</dim>
					<dim>-1</dim>
					<dim>-1</dim>
				</port>
			</input>
			<output>
				<port id="1" precision="I32">
					<dim>3</dim>
					<dim>-1</dim>
					<dim>-1</dim>
				</port>
				<port id="2" precision="I32">
					<dim>3</dim>
					<dim>-1</dim>
					<dim>-1</dim>
				</port>
				<port id="3" precision="I32">
					<dim>3</dim>
					<dim>-1</dim>
					<dim>-1</dim>
				</port>
			</output>
		</layer>
		<layer id="151" name="Slice_4469" type="StridedSlice">
			<data execOrder="91" execTimeMcs="not_executed" originalLayersNames="Slice_4469" outputLayouts="bfyx" outputPrecisions="i32" primitiveType="strided_slice_ref__i32" runtimePrecision="i32" />
			<input>
				<port id="0" precision="I32">
					<dim>3</dim>
					<dim>-1</dim>
					<dim>-1</dim>
				</port>
			</input>
			<output>
				<port id="1" precision="I32">
					<dim>1</dim>
					<dim>-1</dim>
					<dim>-1</dim>
				</port>
			</output>
		</layer>
		<layer id="152" name="Squeeze_4470" type="Reshape">
			<data execOrder="92" execTimeMcs="not_executed" originalLayersNames="Squeeze_4470" outputLayouts="bfyx" outputPrecisions="i32" primitiveType="undef" runtimePrecision="i32" />
			<input>
				<port id="0" precision="I32">
					<dim>1</dim>
					<dim>-1</dim>
					<dim>-1</dim>
				</port>
			</input>
			<output>
				<port id="1" precision="I32">
					<dim>-1</dim>
					<dim>-1</dim>
				</port>
			</output>
		</layer>
		<layer id="153" name="Convert_4471" type="Reorder">
			<data execOrder="93" execTimeMcs="not_executed" originalLayersNames="Convert_4471" outputLayouts="bfyx" outputPrecisions="f16" primitiveType="reorder_data__i32" runtimePrecision="i32" />
			<input>
				<port id="0" precision="I32">
					<dim>-1</dim>
					<dim>-1</dim>
				</port>
			</input>
			<output>
				<port id="1" precision="FP16">
					<dim>-1</dim>
					<dim>-1</dim>
				</port>
			</output>
		</layer>
		<layer id="154" name="Unsqueeze_4480" type="Reshape">
			<data execOrder="94" execTimeMcs="not_executed" originalLayersNames="Unsqueeze_4480" outputLayouts="bfyx" outputPrecisions="f16" primitiveType="undef" runtimePrecision="f16" />
			<input>
				<port id="0" precision="FP16">
					<dim>-1</dim>
					<dim>-1</dim>
				</port>
			</input>
			<output>
				<port id="1" precision="FP16">
					<dim>-1</dim>
					<dim>-1</dim>
					<dim>1</dim>
				</port>
			</output>
		</layer>
		<layer id="155" name="Multiply_4481" type="Eltwise">
			<data execOrder="95" execTimeMcs="not_executed" originalLayersNames="Multiply_4481" outputLayouts="bfyx" outputPrecisions="f16" primitiveType="generic_eltwise_ref__f16" runtimePrecision="f16" />
			<input>
				<port id="0" precision="FP16">
					<dim>-1</dim>
					<dim>-1</dim>
					<dim>1</dim>
				</port>
			</input>
			<output>
				<port id="1" precision="FP16">
					<dim>-1</dim>
					<dim>-1</dim>
					<dim>32</dim>
				</port>
			</output>
		</layer>
		<layer id="156" name="Unsqueeze_4486" type="Reshape">
			<data execOrder="96" execTimeMcs="not_executed" originalLayersNames="Unsqueeze_4486" outputLayouts="bfyx" outputPrecisions="f16" primitiveType="undef" runtimePrecision="f16" />
			<input>
				<port id="0" precision="FP16">
					<dim>-1</dim>
					<dim>-1</dim>
					<dim>32</dim>
				</port>
			</input>
			<output>
				<port id="1" precision="FP16">
					<dim>1</dim>
					<dim>-1</dim>
					<dim>-1</dim>
					<dim>32</dim>
				</port>
			</output>
		</layer>
		<layer id="157" name="Slice_4473" type="StridedSlice">
			<data execOrder="177" execTimeMcs="not_executed" originalLayersNames="Slice_4473" outputLayouts="bfyx" outputPrecisions="i32" primitiveType="strided_slice_ref__i32" runtimePrecision="i32" />
			<input>
				<port id="0" precision="I32">
					<dim>3</dim>
					<dim>-1</dim>
					<dim>-1</dim>
				</port>
			</input>
			<output>
				<port id="1" precision="I32">
					<dim>1</dim>
					<dim>-1</dim>
					<dim>-1</dim>
				</port>
			</output>
		</layer>
		<layer id="158" name="Squeeze_4474" type="Reshape">
			<data execOrder="178" execTimeMcs="not_executed" originalLayersNames="Squeeze_4474" outputLayouts="bfyx" outputPrecisions="i32" primitiveType="undef" runtimePrecision="i32" />
			<input>
				<port id="0" precision="I32">
					<dim>1</dim>
					<dim>-1</dim>
					<dim>-1</dim>
				</port>
			</input>
			<output>
				<port id="1" precision="I32">
					<dim>-1</dim>
					<dim>-1</dim>
				</port>
			</output>
		</layer>
		<layer id="159" name="Convert_4475" type="Reorder">
			<data execOrder="179" execTimeMcs="not_executed" originalLayersNames="Convert_4475" outputLayouts="bfyx" outputPrecisions="f16" primitiveType="reorder_data__i32" runtimePrecision="i32" />
			<input>
				<port id="0" precision="I32">
					<dim>-1</dim>
					<dim>-1</dim>
				</port>
			</input>
			<output>
				<port id="1" precision="FP16">
					<dim>-1</dim>
					<dim>-1</dim>
				</port>
			</output>
		</layer>
		<layer id="160" name="Unsqueeze_4482" type="Reshape">
			<data execOrder="180" execTimeMcs="not_executed" originalLayersNames="Unsqueeze_4482" outputLayouts="bfyx" outputPrecisions="f16" primitiveType="undef" runtimePrecision="f16" />
			<input>
				<port id="0" precision="FP16">
					<dim>-1</dim>
					<dim>-1</dim>
				</port>
			</input>
			<output>
				<port id="1" precision="FP16">
					<dim>-1</dim>
					<dim>-1</dim>
					<dim>1</dim>
				</port>
			</output>
		</layer>
		<layer id="161" name="Multiply_4483" type="Eltwise">
			<data execOrder="181" execTimeMcs="not_executed" originalLayersNames="Multiply_4483" outputLayouts="bfyx" outputPrecisions="f16" primitiveType="generic_eltwise_ref__f16" runtimePrecision="f16" />
			<input>
				<port id="0" precision="FP16">
					<dim>-1</dim>
					<dim>-1</dim>
					<dim>1</dim>
				</port>
			</input>
			<output>
				<port id="1" precision="FP16">
					<dim>-1</dim>
					<dim>-1</dim>
					<dim>32</dim>
				</port>
			</output>
		</layer>
		<layer id="162" name="Unsqueeze_4487" type="Reshape">
			<data execOrder="182" execTimeMcs="not_executed" originalLayersNames="Unsqueeze_4487" outputLayouts="bfyx" outputPrecisions="f16" primitiveType="undef" runtimePrecision="f16" />
			<input>
				<port id="0" precision="FP16">
					<dim>-1</dim>
					<dim>-1</dim>
					<dim>32</dim>
				</port>
			</input>
			<output>
				<port id="1" precision="FP16">
					<dim>1</dim>
					<dim>-1</dim>
					<dim>-1</dim>
					<dim>32</dim>
				</port>
			</output>
		</layer>
		<layer id="163" name="Slice_4477" type="StridedSlice">
			<data execOrder="171" execTimeMcs="not_executed" originalLayersNames="Slice_4477" outputLayouts="bfyx" outputPrecisions="i32" primitiveType="strided_slice_ref__i32" runtimePrecision="i32" />
			<input>
				<port id="0" precision="I32">
					<dim>3</dim>
					<dim>-1</dim>
					<dim>-1</dim>
				</port>
			</input>
			<output>
				<port id="1" precision="I32">
					<dim>1</dim>
					<dim>-1</dim>
					<dim>-1</dim>
				</port>
			</output>
		</layer>
		<layer id="164" name="Squeeze_4478" type="Reshape">
			<data execOrder="172" execTimeMcs="not_executed" originalLayersNames="Squeeze_4478" outputLayouts="bfyx" outputPrecisions="i32" primitiveType="undef" runtimePrecision="i32" />
			<input>
				<port id="0" precision="I32">
					<dim>1</dim>
					<dim>-1</dim>
					<dim>-1</dim>
				</port>
			</input>
			<output>
				<port id="1" precision="I32">
					<dim>-1</dim>
					<dim>-1</dim>
				</port>
			</output>
		</layer>
		<layer id="165" name="Convert_4479" type="Reorder">
			<data execOrder="173" execTimeMcs="not_executed" originalLayersNames="Convert_4479" outputLayouts="bfyx" outputPrecisions="f16" primitiveType="reorder_data__i32" runtimePrecision="i32" />
			<input>
				<port id="0" precision="I32">
					<dim>-1</dim>
					<dim>-1</dim>
				</port>
			</input>
			<output>
				<port id="1" precision="FP16">
					<dim>-1</dim>
					<dim>-1</dim>
				</port>
			</output>
		</layer>
		<layer id="166" name="Unsqueeze_4484" type="Reshape">
			<data execOrder="174" execTimeMcs="not_executed" originalLayersNames="Unsqueeze_4484" outputLayouts="bfyx" outputPrecisions="f16" primitiveType="undef" runtimePrecision="f16" />
			<input>
				<port id="0" precision="FP16">
					<dim>-1</dim>
					<dim>-1</dim>
				</port>
			</input>
			<output>
				<port id="1" precision="FP16">
					<dim>-1</dim>
					<dim>-1</dim>
					<dim>1</dim>
				</port>
			</output>
		</layer>
		<layer id="167" name="Multiply_4485" type="Eltwise">
			<data execOrder="175" execTimeMcs="not_executed" originalLayersNames="Multiply_4485" outputLayouts="bfyx" outputPrecisions="f16" primitiveType="generic_eltwise_ref__f16" runtimePrecision="f16" />
			<input>
				<port id="0" precision="FP16">
					<dim>-1</dim>
					<dim>-1</dim>
					<dim>1</dim>
				</port>
			</input>
			<output>
				<port id="1" precision="FP16">
					<dim>-1</dim>
					<dim>-1</dim>
					<dim>32</dim>
				</port>
			</output>
		</layer>
		<layer id="168" name="Unsqueeze_4488" type="Reshape">
			<data execOrder="176" execTimeMcs="not_executed" originalLayersNames="Unsqueeze_4488" outputLayouts="bfyx" outputPrecisions="f16" primitiveType="undef" runtimePrecision="f16" />
			<input>
				<port id="0" precision="FP16">
					<dim>-1</dim>
					<dim>-1</dim>
					<dim>32</dim>
				</port>
			</input>
			<output>
				<port id="1" precision="FP16">
					<dim>1</dim>
					<dim>-1</dim>
					<dim>-1</dim>
					<dim>32</dim>
				</port>
			</output>
		</layer>
		<layer id="169" name="Concat_4489" type="Concat">
			<data execOrder="183" execTimeMcs="not_executed" originalLayersNames="Concat_4489" outputLayouts="bfyx" outputPrecisions="f16" primitiveType="concatenation_gpu_simple_ref__f16" runtimePrecision="f16" />
			<input>
				<port id="0" precision="FP16">
					<dim>1</dim>
					<dim>-1</dim>
					<dim>-1</dim>
					<dim>32</dim>
				</port>
				<port id="1" precision="FP16">
					<dim>1</dim>
					<dim>-1</dim>
					<dim>-1</dim>
					<dim>32</dim>
				</port>
				<port id="2" precision="FP16">
					<dim>1</dim>
					<dim>-1</dim>
					<dim>-1</dim>
					<dim>32</dim>
				</port>
			</input>
			<output>
				<port id="3" precision="FP16">
					<dim>3</dim>
					<dim>-1</dim>
					<dim>-1</dim>
					<dim>32</dim>
				</port>
				<port id="4" precision="FP16">
					<dim>3</dim>
					<dim>-1</dim>
					<dim>-1</dim>
					<dim>32</dim>
				</port>
				<port id="5" precision="FP16">
					<dim>3</dim>
					<dim>-1</dim>
					<dim>-1</dim>
					<dim>32</dim>
				</port>
			</output>
		</layer>
		<layer id="170" name="Slice_4494" type="StridedSlice">
			<data execOrder="184" execTimeMcs="not_executed" originalLayersNames="Slice_4494" outputLayouts="bfyx" outputPrecisions="f16" primitiveType="strided_slice_ref__f16" runtimePrecision="f16" />
			<input>
				<port id="0" precision="FP16">
					<dim>3</dim>
					<dim>-1</dim>
					<dim>-1</dim>
					<dim>32</dim>
				</port>
			</input>
			<output>
				<port id="1" precision="FP16">
					<dim>1</dim>
					<dim>-1</dim>
					<dim>-1</dim>
					<dim>32</dim>
				</port>
			</output>
		</layer>
		<layer id="171" name="Squeeze_4495" type="Reshape">
			<data execOrder="185" execTimeMcs="not_executed" originalLayersNames="Squeeze_4495" outputLayouts="bfyx" outputPrecisions="f16" primitiveType="undef" runtimePrecision="f16" />
			<input>
				<port id="0" precision="FP16">
					<dim>1</dim>
					<dim>-1</dim>
					<dim>-1</dim>
					<dim>32</dim>
				</port>
			</input>
			<output>
				<port id="1" precision="FP16">
					<dim>-1</dim>
					<dim>-1</dim>
					<dim>32</dim>
				</port>
			</output>
		</layer>
		<layer id="172" name="Slice_4492" type="StridedSlice">
			<data execOrder="186" execTimeMcs="not_executed" originalLayersNames="Slice_4492" outputLayouts="bfyx" outputPrecisions="f16" primitiveType="strided_slice_ref__f16" runtimePrecision="f16" />
			<input>
				<port id="0" precision="FP16">
					<dim>3</dim>
					<dim>-1</dim>
					<dim>-1</dim>
					<dim>32</dim>
				</port>
			</input>
			<output>
				<port id="1" precision="FP16">
					<dim>1</dim>
					<dim>-1</dim>
					<dim>-1</dim>
					<dim>32</dim>
				</port>
			</output>
		</layer>
		<layer id="173" name="Squeeze_4493" type="Reshape">
			<data execOrder="187" execTimeMcs="not_executed" originalLayersNames="Squeeze_4493" outputLayouts="bfyx" outputPrecisions="f16" primitiveType="undef" runtimePrecision="f16" />
			<input>
				<port id="0" precision="FP16">
					<dim>1</dim>
					<dim>-1</dim>
					<dim>-1</dim>
					<dim>32</dim>
				</port>
			</input>
			<output>
				<port id="1" precision="FP16">
					<dim>-1</dim>
					<dim>-1</dim>
					<dim>32</dim>
				</port>
			</output>
		</layer>
		<layer id="174" name="Slice_4490" type="StridedSlice">
			<data execOrder="188" execTimeMcs="not_executed" originalLayersNames="Slice_4490" outputLayouts="bfyx" outputPrecisions="f16" primitiveType="strided_slice_ref__f16" runtimePrecision="f16" />
			<input>
				<port id="0" precision="FP16">
					<dim>3</dim>
					<dim>-1</dim>
					<dim>-1</dim>
					<dim>32</dim>
				</port>
			</input>
			<output>
				<port id="1" precision="FP16">
					<dim>1</dim>
					<dim>-1</dim>
					<dim>-1</dim>
					<dim>32</dim>
				</port>
			</output>
		</layer>
		<layer id="175" name="Squeeze_4491" type="Reshape">
			<data execOrder="189" execTimeMcs="not_executed" originalLayersNames="Squeeze_4491" outputLayouts="bfyx" outputPrecisions="f16" primitiveType="undef" runtimePrecision="f16" />
			<input>
				<port id="0" precision="FP16">
					<dim>1</dim>
					<dim>-1</dim>
					<dim>-1</dim>
					<dim>32</dim>
				</port>
			</input>
			<output>
				<port id="1" precision="FP16">
					<dim>-1</dim>
					<dim>-1</dim>
					<dim>32</dim>
				</port>
			</output>
		</layer>
		<layer id="176" name="Select_4512" type="select">
			<data execOrder="190" execTimeMcs="not_executed" originalLayersNames="Select_4512" outputLayouts="bfyx" outputPrecisions="f16" primitiveType="select_gpu_ref__u8" runtimePrecision="u8" />
			<input>
				<port id="0" precision="FP16">
					<dim>-1</dim>
					<dim>-1</dim>
					<dim>32</dim>
				</port>
				<port id="1" precision="FP16">
					<dim>-1</dim>
					<dim>-1</dim>
					<dim>32</dim>
				</port>
			</input>
			<output>
				<port id="2" precision="FP16">
					<dim>-1</dim>
					<dim>-1</dim>
					<dim>32</dim>
				</port>
			</output>
		</layer>
		<layer id="177" name="Select_4516" type="select">
			<data execOrder="191" execTimeMcs="not_executed" originalLayersNames="Select_4516" outputLayouts="bfyx" outputPrecisions="f16" primitiveType="select_gpu_ref__u8" runtimePrecision="u8" />
			<input>
				<port id="0" precision="FP16">
					<dim>-1</dim>
					<dim>-1</dim>
					<dim>32</dim>
				</port>
				<port id="1" precision="FP16">
					<dim>-1</dim>
					<dim>-1</dim>
					<dim>32</dim>
				</port>
			</input>
			<output>
				<port id="2" precision="FP16">
					<dim>-1</dim>
					<dim>-1</dim>
					<dim>32</dim>
				</port>
				<port id="3" precision="FP16">
					<dim>-1</dim>
					<dim>-1</dim>
					<dim>32</dim>
				</port>
			</output>
		</layer>
		<layer id="178" name="Cos_4517" type="Activation">
			<data execOrder="194" execTimeMcs="not_executed" originalLayersNames="Cos_4517" outputLayouts="bfyx" outputPrecisions="f16" primitiveType="activation_ref__f16" runtimePrecision="f16" />
			<input>
				<port id="0" precision="FP16">
					<dim>-1</dim>
					<dim>-1</dim>
					<dim>32</dim>
				</port>
			</input>
			<output>
				<port id="1" precision="FP16">
					<dim>-1</dim>
					<dim>-1</dim>
					<dim>32</dim>
				</port>
			</output>
		</layer>
		<layer id="179" name="Unsqueeze_5089" type="Reshape">
			<data execOrder="195" execTimeMcs="not_executed" originalLayersNames="Unsqueeze_5089" outputLayouts="bfyx" outputPrecisions="f16" primitiveType="undef" runtimePrecision="f16" />
			<input>
				<port id="0" precision="FP16">
					<dim>-1</dim>
					<dim>-1</dim>
					<dim>32</dim>
				</port>
			</input>
			<output>
				<port id="1" precision="FP16">
					<dim>-1</dim>
					<dim>1</dim>
					<dim>-1</dim>
					<dim>32</dim>
				</port>
				<port id="2" precision="FP16">
					<dim>-1</dim>
					<dim>1</dim>
					<dim>-1</dim>
					<dim>32</dim>
				</port>
				<port id="3" precision="FP16">
					<dim>-1</dim>
					<dim>1</dim>
					<dim>-1</dim>
					<dim>32</dim>
				</port>
				<port id="4" precision="FP16">
					<dim>-1</dim>
					<dim>1</dim>
					<dim>-1</dim>
					<dim>32</dim>
				</port>
				<port id="5" precision="FP16">
					<dim>-1</dim>
					<dim>1</dim>
					<dim>-1</dim>
					<dim>32</dim>
				</port>
				<port id="6" precision="FP16">
					<dim>-1</dim>
					<dim>1</dim>
					<dim>-1</dim>
					<dim>32</dim>
				</port>
				<port id="7" precision="FP16">
					<dim>-1</dim>
					<dim>1</dim>
					<dim>-1</dim>
					<dim>32</dim>
				</port>
				<port id="8" precision="FP16">
					<dim>-1</dim>
					<dim>1</dim>
					<dim>-1</dim>
					<dim>32</dim>
				</port>
				<port id="9" precision="FP16">
					<dim>-1</dim>
					<dim>1</dim>
					<dim>-1</dim>
					<dim>32</dim>
				</port>
				<port id="10" precision="FP16">
					<dim>-1</dim>
					<dim>1</dim>
					<dim>-1</dim>
					<dim>32</dim>
				</port>
				<port id="11" precision="FP16">
					<dim>-1</dim>
					<dim>1</dim>
					<dim>-1</dim>
					<dim>32</dim>
				</port>
				<port id="12" precision="FP16">
					<dim>-1</dim>
					<dim>1</dim>
					<dim>-1</dim>
					<dim>32</dim>
				</port>
				<port id="13" precision="FP16">
					<dim>-1</dim>
					<dim>1</dim>
					<dim>-1</dim>
					<dim>32</dim>
				</port>
				<port id="14" precision="FP16">
					<dim>-1</dim>
					<dim>1</dim>
					<dim>-1</dim>
					<dim>32</dim>
				</port>
				<port id="15" precision="FP16">
					<dim>-1</dim>
					<dim>1</dim>
					<dim>-1</dim>
					<dim>32</dim>
				</port>
				<port id="16" precision="FP16">
					<dim>-1</dim>
					<dim>1</dim>
					<dim>-1</dim>
					<dim>32</dim>
				</port>
			</output>
		</layer>
		<layer id="180" name="Sin_4518" type="Activation">
			<data execOrder="192" execTimeMcs="not_executed" originalLayersNames="Sin_4518" outputLayouts="bfyx" outputPrecisions="f16" primitiveType="activation_ref__f16" runtimePrecision="f16" />
			<input>
				<port id="0" precision="FP16">
					<dim>-1</dim>
					<dim>-1</dim>
					<dim>32</dim>
				</port>
			</input>
			<output>
				<port id="1" precision="FP16">
					<dim>-1</dim>
					<dim>-1</dim>
					<dim>32</dim>
				</port>
			</output>
		</layer>
		<layer id="181" name="Unsqueeze_5090" type="Reshape">
			<data execOrder="193" execTimeMcs="not_executed" originalLayersNames="Unsqueeze_5090" outputLayouts="bfyx" outputPrecisions="f16" primitiveType="undef" runtimePrecision="f16" />
			<input>
				<port id="0" precision="FP16">
					<dim>-1</dim>
					<dim>-1</dim>
					<dim>32</dim>
				</port>
			</input>
			<output>
				<port id="1" precision="FP16">
					<dim>-1</dim>
					<dim>1</dim>
					<dim>-1</dim>
					<dim>32</dim>
				</port>
				<port id="2" precision="FP16">
					<dim>-1</dim>
					<dim>1</dim>
					<dim>-1</dim>
					<dim>32</dim>
				</port>
				<port id="3" precision="FP16">
					<dim>-1</dim>
					<dim>1</dim>
					<dim>-1</dim>
					<dim>32</dim>
				</port>
				<port id="4" precision="FP16">
					<dim>-1</dim>
					<dim>1</dim>
					<dim>-1</dim>
					<dim>32</dim>
				</port>
				<port id="5" precision="FP16">
					<dim>-1</dim>
					<dim>1</dim>
					<dim>-1</dim>
					<dim>32</dim>
				</port>
				<port id="6" precision="FP16">
					<dim>-1</dim>
					<dim>1</dim>
					<dim>-1</dim>
					<dim>32</dim>
				</port>
				<port id="7" precision="FP16">
					<dim>-1</dim>
					<dim>1</dim>
					<dim>-1</dim>
					<dim>32</dim>
				</port>
				<port id="8" precision="FP16">
					<dim>-1</dim>
					<dim>1</dim>
					<dim>-1</dim>
					<dim>32</dim>
				</port>
				<port id="9" precision="FP16">
					<dim>-1</dim>
					<dim>1</dim>
					<dim>-1</dim>
					<dim>32</dim>
				</port>
				<port id="10" precision="FP16">
					<dim>-1</dim>
					<dim>1</dim>
					<dim>-1</dim>
					<dim>32</dim>
				</port>
				<port id="11" precision="FP16">
					<dim>-1</dim>
					<dim>1</dim>
					<dim>-1</dim>
					<dim>32</dim>
				</port>
				<port id="12" precision="FP16">
					<dim>-1</dim>
					<dim>1</dim>
					<dim>-1</dim>
					<dim>32</dim>
				</port>
				<port id="13" precision="FP16">
					<dim>-1</dim>
					<dim>1</dim>
					<dim>-1</dim>
					<dim>32</dim>
				</port>
				<port id="14" precision="FP16">
					<dim>-1</dim>
					<dim>1</dim>
					<dim>-1</dim>
					<dim>32</dim>
				</port>
				<port id="15" precision="FP16">
					<dim>-1</dim>
					<dim>1</dim>
					<dim>-1</dim>
					<dim>32</dim>
				</port>
				<port id="16" precision="FP16">
					<dim>-1</dim>
					<dim>1</dim>
					<dim>-1</dim>
					<dim>32</dim>
				</port>
			</output>
		</layer>
		<layer id="182" name="RoPE_5091" type="RoPE">
			<data execOrder="1117" execTimeMcs="not_executed" originalLayersNames="RoPE_5091" outputLayouts="bfyx" outputPrecisions="f16" primitiveType="ocl::rope::opt___f16" runtimePrecision="f16" />
			<input>
				<port id="0" precision="FP16">
					<dim>-1</dim>
					<dim>-1</dim>
					<dim>16</dim>
					<dim>256</dim>
				</port>
				<port id="1" precision="FP16">
					<dim>-1</dim>
					<dim>1</dim>
					<dim>-1</dim>
					<dim>32</dim>
				</port>
				<port id="2" precision="FP16">
					<dim>-1</dim>
					<dim>1</dim>
					<dim>-1</dim>
					<dim>32</dim>
				</port>
			</input>
			<output>
				<port id="3" precision="FP16">
					<dim>-1</dim>
					<dim>16</dim>
					<dim>-1</dim>
					<dim>256</dim>
				</port>
			</output>
		</layer>
		<layer id="183" name="MatMul_5076_split.out0" type="Crop">
			<data execOrder="1118" execTimeMcs="not_executed" originalLayersNames="MatMul_5076_split" outputLayouts="bfyx" outputPrecisions="f16" primitiveType="generic_eltwise_ref__f16" runtimePrecision="f16" />
			<input>
				<port id="0" precision="FP16">
					<dim>-1</dim>
					<dim>-1</dim>
					<dim>10240</dim>
				</port>
			</input>
			<output>
				<port id="1" precision="FP16">
					<dim>-1</dim>
					<dim>-1</dim>
					<dim>1024</dim>
				</port>
			</output>
		</layer>
		<layer id="184" name="Reshape_5078" type="Reshape">
			<data execOrder="1119" execTimeMcs="not_executed" originalLayersNames="Reshape_5078" outputLayouts="bfyx" outputPrecisions="f16" primitiveType="undef" runtimePrecision="f16" />
			<input>
				<port id="0" precision="FP16">
					<dim>-1</dim>
					<dim>-1</dim>
					<dim>1024</dim>
				</port>
			</input>
			<output>
				<port id="1" precision="FP16">
					<dim>-1</dim>
					<dim>-1</dim>
					<dim>4</dim>
					<dim>256</dim>
				</port>
			</output>
		</layer>
		<layer id="185" name="RMS_5086" type="rms">
			<data execOrder="1120" execTimeMcs="not_executed" originalLayersNames="RMS_5086" outputLayouts="bfyx" outputPrecisions="f16" primitiveType="rms_gpu_bfyx_opt__f16" runtimePrecision="f16" />
			<input>
				<port id="0" precision="FP16">
					<dim>-1</dim>
					<dim>-1</dim>
					<dim>4</dim>
					<dim>256</dim>
				</port>
			</input>
			<output>
				<port id="1" precision="FP16">
					<dim>-1</dim>
					<dim>-1</dim>
					<dim>4</dim>
					<dim>256</dim>
				</port>
			</output>
		</layer>
		<layer id="186" name="RoPE_5094" type="RoPE">
			<data execOrder="1121" execTimeMcs="not_executed" originalLayersNames="RoPE_5094" outputLayouts="bfyx" outputPrecisions="f16" primitiveType="ocl::rope::opt___f16" runtimePrecision="f16" />
			<input>
				<port id="0" precision="FP16">
					<dim>-1</dim>
					<dim>-1</dim>
					<dim>4</dim>
					<dim>256</dim>
				</port>
				<port id="1" precision="FP16">
					<dim>-1</dim>
					<dim>1</dim>
					<dim>-1</dim>
					<dim>32</dim>
				</port>
				<port id="2" precision="FP16">
					<dim>-1</dim>
					<dim>1</dim>
					<dim>-1</dim>
					<dim>32</dim>
				</port>
			</input>
			<output>
				<port id="3" precision="FP16">
					<dim>-1</dim>
					<dim>4</dim>
					<dim>-1</dim>
					<dim>256</dim>
				</port>
				<port id="4" precision="FP16">
					<dim>-1</dim>
					<dim>4</dim>
					<dim>-1</dim>
					<dim>256</dim>
				</port>
			</output>
		</layer>
		<layer id="187" name="ShapeOf_65944" type="shape_of">
			<data execOrder="1122" execTimeMcs="not_executed" originalLayersNames="ShapeOf_65944" outputLayouts="bfyx" outputPrecisions="i32" primitiveType="shape_of_cpu_impl__f16" runtimePrecision="f16" />
			<input>
				<port id="0" precision="FP16">
					<dim>-1</dim>
					<dim>4</dim>
					<dim>-1</dim>
					<dim>256</dim>
				</port>
			</input>
			<output>
				<port id="1" precision="I32">
					<dim>4</dim>
				</port>
			</output>
		</layer>
		<layer id="188" name="Gather_65947" type="Gather">
			<data execOrder="1123" execTimeMcs="not_executed" originalLayersNames="Gather_65947" outputLayouts="bfyx" outputPrecisions="i32" primitiveType="gather_cpu_impl__i32" runtimePrecision="i32" />
			<input>
				<port id="0" precision="I32">
					<dim>4</dim>
				</port>
			</input>
			<output>
				<port id="1" precision="I32">
					<dim>1</dim>
				</port>
			</output>
		</layer>
		<layer id="189" name="Concat_5099" type="Concat">
			<data execOrder="1124" execTimeMcs="not_executed" originalLayersNames="Concat_5099" outputLayouts="bfyx" outputPrecisions="i32" primitiveType="concatenation_cpu_impl__i32" runtimePrecision="i32" />
			<input>
				<port id="0" precision="I32">
					<dim>1</dim>
				</port>
			</input>
			<output>
				<port id="1" precision="I32">
					<dim>4</dim>
				</port>
			</output>
		</layer>
		<layer id="190" name="Broadcast_7012" type="broadcast">
			<data execOrder="1125" execTimeMcs="not_executed" originalLayersNames="Broadcast_7012" outputLayouts="bfyx" outputPrecisions="f16" primitiveType="broadcast_cpu_impl__f16" runtimePrecision="f16" />
			<input>
				<port id="0" precision="I32">
					<dim>4</dim>
				</port>
			</input>
			<output>
				<port id="1" precision="FP16">
					<dim>-1</dim>
					<dim>4</dim>
					<dim>0</dim>
					<dim>256</dim>
				</port>
				<port id="2" precision="FP16">
					<dim>-1</dim>
					<dim>4</dim>
					<dim>0</dim>
					<dim>256</dim>
				</port>
				<port id="3" precision="FP16">
					<dim>-1</dim>
					<dim>4</dim>
					<dim>0</dim>
					<dim>256</dim>
				</port>
				<port id="4" precision="FP16">
					<dim>-1</dim>
					<dim>4</dim>
					<dim>0</dim>
					<dim>256</dim>
				</port>
				<port id="5" precision="FP16">
					<dim>-1</dim>
					<dim>4</dim>
					<dim>0</dim>
					<dim>256</dim>
				</port>
				<port id="6" precision="FP16">
					<dim>-1</dim>
					<dim>4</dim>
					<dim>0</dim>
					<dim>256</dim>
				</port>
				<port id="7" precision="FP16">
					<dim>-1</dim>
					<dim>4</dim>
					<dim>0</dim>
					<dim>256</dim>
				</port>
				<port id="8" precision="FP16">
					<dim>-1</dim>
					<dim>4</dim>
					<dim>0</dim>
					<dim>256</dim>
				</port>
				<port id="9" precision="FP16">
					<dim>-1</dim>
					<dim>4</dim>
					<dim>0</dim>
					<dim>256</dim>
				</port>
				<port id="10" precision="FP16">
					<dim>-1</dim>
					<dim>4</dim>
					<dim>0</dim>
					<dim>256</dim>
				</port>
				<port id="11" precision="FP16">
					<dim>-1</dim>
					<dim>4</dim>
					<dim>0</dim>
					<dim>256</dim>
				</port>
				<port id="12" precision="FP16">
					<dim>-1</dim>
					<dim>4</dim>
					<dim>0</dim>
					<dim>256</dim>
				</port>
				<port id="13" precision="FP16">
					<dim>-1</dim>
					<dim>4</dim>
					<dim>0</dim>
					<dim>256</dim>
				</port>
				<port id="14" precision="FP16">
					<dim>-1</dim>
					<dim>4</dim>
					<dim>0</dim>
					<dim>256</dim>
				</port>
				<port id="15" precision="FP16">
					<dim>-1</dim>
					<dim>4</dim>
					<dim>0</dim>
					<dim>256</dim>
				</port>
				<port id="16" precision="FP16">
					<dim>-1</dim>
					<dim>4</dim>
					<dim>0</dim>
					<dim>256</dim>
				</port>
			</output>
		</layer>
		<layer id="191" name="ReadValue_5106" type="read_value">
			<data execOrder="1142" execTimeMcs="not_executed" originalLayersNames="ReadValue_5106" outputLayouts="bfyx" outputPrecisions="f16" primitiveType="undef" runtimePrecision="f16" />
			<input>
				<port id="0" precision="FP16">
					<dim>-1</dim>
					<dim>4</dim>
					<dim>0</dim>
					<dim>256</dim>
				</port>
			</input>
			<output>
				<port id="1" precision="FP16">
					<dim>-1</dim>
					<dim>4</dim>
					<dim>-1</dim>
					<dim>256</dim>
				</port>
			</output>
		</layer>
		<layer id="192" name="Concat_5110" type="kv_cache">
			<data execOrder="1143" execTimeMcs="not_executed" originalLayersNames="Concat_5110" outputLayouts="bfyx" outputPrecisions="f16" primitiveType="concatenation_gpu_simple_ref__f16" runtimePrecision="f16" />
			<input>
				<port id="0" precision="FP16">
					<dim>-1</dim>
					<dim>4</dim>
					<dim>-1</dim>
					<dim>256</dim>
				</port>
				<port id="1" precision="FP16">
					<dim>-1</dim>
					<dim>4</dim>
					<dim>-1</dim>
					<dim>256</dim>
				</port>
				<port id="2" precision="I32">
					<dim>-1</dim>
				</port>
			</input>
			<output>
				<port id="3" precision="FP16">
					<dim>-1</dim>
					<dim>4</dim>
					<dim>-1</dim>
					<dim>256</dim>
				</port>
				<port id="4" precision="FP16">
					<dim>-1</dim>
					<dim>4</dim>
					<dim>-1</dim>
					<dim>256</dim>
				</port>
			</output>
		</layer>
		<layer id="193" name="ReadValue_5107" type="read_value">
			<data execOrder="1140" execTimeMcs="not_executed" originalLayersNames="ReadValue_5107" outputLayouts="bfyx" outputPrecisions="f16" primitiveType="undef" runtimePrecision="f16" />
			<input>
				<port id="0" precision="FP16">
					<dim>-1</dim>
					<dim>4</dim>
					<dim>0</dim>
					<dim>256</dim>
				</port>
			</input>
			<output>
				<port id="1" precision="FP16">
					<dim>-1</dim>
					<dim>4</dim>
					<dim>-1</dim>
					<dim>256</dim>
				</port>
			</output>
		</layer>
		<layer id="194" name="MatMul_5076_split.out2" type="Crop">
			<data execOrder="1106" execTimeMcs="not_executed" originalLayersNames="MatMul_5076_split" outputLayouts="bfyx" outputPrecisions="f16" primitiveType="generic_eltwise_ref__f16" runtimePrecision="f16" />
			<input>
				<port id="0" precision="FP16">
					<dim>-1</dim>
					<dim>-1</dim>
					<dim>10240</dim>
				</port>
			</input>
			<output>
				<port id="1" precision="FP16">
					<dim>-1</dim>
					<dim>-1</dim>
					<dim>1024</dim>
				</port>
			</output>
		</layer>
		<layer id="195" name="Multiply_102530" type="Eltwise">
			<data execOrder="1107" execTimeMcs="not_executed" originalLayersNames="Multiply_102530" outputLayouts="bfyx" outputPrecisions="f16" primitiveType="generic_eltwise_ref__f16" runtimePrecision="f16" />
			<input>
				<port id="0" precision="FP16">
					<dim>-1</dim>
					<dim>-1</dim>
					<dim>1024</dim>
				</port>
			</input>
			<output>
				<port id="1" precision="FP16">
					<dim>-1</dim>
					<dim>-1</dim>
					<dim>1024</dim>
				</port>
			</output>
		</layer>
		<layer id="196" name="Reshape_5080" type="Reshape">
			<data execOrder="1108" execTimeMcs="not_executed" originalLayersNames="Reshape_5080" outputLayouts="bfyx" outputPrecisions="f16" primitiveType="undef" runtimePrecision="f16" />
			<input>
				<port id="0" precision="FP16">
					<dim>-1</dim>
					<dim>-1</dim>
					<dim>1024</dim>
				</port>
			</input>
			<output>
				<port id="1" precision="FP16">
					<dim>-1</dim>
					<dim>-1</dim>
					<dim>4</dim>
					<dim>256</dim>
				</port>
			</output>
		</layer>
		<layer id="197" name="Transpose_5088" type="Permute">
			<data execOrder="1109" execTimeMcs="not_executed" originalLayersNames="Transpose_5088" outputLayouts="bfyx" outputPrecisions="f16" primitiveType="permute_ref__f16" runtimePrecision="f16" />
			<input>
				<port id="0" precision="FP16">
					<dim>-1</dim>
					<dim>-1</dim>
					<dim>4</dim>
					<dim>256</dim>
				</port>
			</input>
			<output>
				<port id="1" precision="FP16">
					<dim>-1</dim>
					<dim>4</dim>
					<dim>-1</dim>
					<dim>256</dim>
				</port>
			</output>
		</layer>
		<layer id="198" name="Concat_5111" type="kv_cache">
			<data execOrder="1141" execTimeMcs="not_executed" originalLayersNames="Concat_5111" outputLayouts="bfyx" outputPrecisions="f16" primitiveType="concatenation_gpu_simple_ref__f16" runtimePrecision="f16" />
			<input>
				<port id="0" precision="FP16">
					<dim>-1</dim>
					<dim>4</dim>
					<dim>-1</dim>
					<dim>256</dim>
				</port>
				<port id="1" precision="FP16">
					<dim>-1</dim>
					<dim>4</dim>
					<dim>-1</dim>
					<dim>256</dim>
				</port>
				<port id="2" precision="I32">
					<dim>-1</dim>
				</port>
			</input>
			<output>
				<port id="3" precision="FP16">
					<dim>-1</dim>
					<dim>4</dim>
					<dim>-1</dim>
					<dim>256</dim>
				</port>
			</output>
		</layer>
		<layer id="199" name="Squeeze_66109" type="Reshape">
			<data execOrder="102" execTimeMcs="not_executed" originalLayersNames="Squeeze_66109" outputLayouts="bfyx" outputPrecisions="i32" primitiveType="undef" runtimePrecision="i32" />
			<input>
				<port id="0" precision="I32">
					<dim>1</dim>
				</port>
			</input>
			<output>
				<port id="1" precision="I32" />
				<port id="2" precision="I32" />
			</output>
		</layer>
		<layer id="200" name="Range_4558" type="range">
			<data execOrder="162" execTimeMcs="not_executed" originalLayersNames="Range_4558" outputLayouts="bfyx" outputPrecisions="i32" primitiveType="range_cpu_impl__i32" runtimePrecision="i32" />
			<input>
				<port id="0" precision="I32" />
			</input>
			<output>
				<port id="1" precision="I32">
					<dim>-1</dim>
				</port>
			</output>
		</layer>
		<layer id="201" name="Unsqueeze_4563" type="Reshape">
			<data execOrder="163" execTimeMcs="not_executed" originalLayersNames="Unsqueeze_4563" outputLayouts="bfyx" outputPrecisions="i32" primitiveType="undef" runtimePrecision="i32" />
			<input>
				<port id="0" precision="I32">
					<dim>-1</dim>
				</port>
			</input>
			<output>
				<port id="1" precision="I32">
					<dim>1</dim>
					<dim>-1</dim>
				</port>
			</output>
		</layer>
		<layer id="202" name="Squeeze_66119" type="Reshape">
			<data execOrder="98" execTimeMcs="not_executed" originalLayersNames="Squeeze_66119" outputLayouts="bfyx" outputPrecisions="i32" primitiveType="undef" runtimePrecision="i32" />
			<input>
				<port id="0" precision="I32">
					<dim>1</dim>
				</port>
			</input>
			<output>
				<port id="1" precision="I32" />
				<port id="2" precision="I32" />
			</output>
		</layer>
		<layer id="203" name="Multiply_95870" type="Eltwise">
			<data execOrder="99" execTimeMcs="not_executed" originalLayersNames="Multiply_95870" outputLayouts="bfyx" outputPrecisions="i32" primitiveType="eltwise_cpu_impl__i32" runtimePrecision="i32" />
			<input>
				<port id="0" precision="I32" />
			</input>
			<output>
				<port id="1" precision="I32" />
			</output>
		</layer>
		<layer id="204" name="Subtract_4554" type="Eltwise">
			<data execOrder="103" execTimeMcs="not_executed" originalLayersNames="Subtract_4554" outputLayouts="bfyx" outputPrecisions="i32" primitiveType="eltwise_cpu_impl__i32" runtimePrecision="i32" />
			<input>
				<port id="0" precision="I32" />
				<port id="1" precision="I32" />
			</input>
			<output>
				<port id="2" precision="I32" />
				<port id="3" precision="I32" />
			</output>
		</layer>
		<layer id="205" name="Add_4564" type="Eltwise">
			<data execOrder="104" execTimeMcs="not_executed" originalLayersNames="Add_4564" outputLayouts="bfyx" outputPrecisions="i32" primitiveType="eltwise_cpu_impl__i32" runtimePrecision="i32" />
			<input>
				<port id="0" precision="I32" />
				<port id="1" precision="I32" />
			</input>
			<output>
				<port id="2" precision="I32" />
			</output>
		</layer>
		<layer id="206" name="Range_4565" type="range">
			<data execOrder="160" execTimeMcs="not_executed" originalLayersNames="Range_4565" outputLayouts="bfyx" outputPrecisions="i32" primitiveType="range_cpu_impl__i32" runtimePrecision="i32" />
			<input>
				<port id="0" precision="I32" />
				<port id="1" precision="I32" />
			</input>
			<output>
				<port id="2" precision="I32">
					<dim>-1</dim>
				</port>
			</output>
		</layer>
		<layer id="207" name="Unsqueeze_4776" type="Reshape">
			<data execOrder="161" execTimeMcs="not_executed" originalLayersNames="Unsqueeze_4776" outputLayouts="bfyx" outputPrecisions="i32" primitiveType="undef" runtimePrecision="i32" />
			<input>
				<port id="0" precision="I32">
					<dim>-1</dim>
				</port>
			</input>
			<output>
				<port id="1" precision="I32">
					<dim>-1</dim>
					<dim>1</dim>
				</port>
			</output>
		</layer>
		<layer id="208" name="LessEqual_4777" type="Eltwise">
			<data execOrder="164" execTimeMcs="not_executed" originalLayersNames="LessEqual_4777" outputLayouts="bfyx" outputPrecisions="u8" primitiveType="generic_eltwise_ref__i32" runtimePrecision="i32" />
			<input>
				<port id="0" precision="I32">
					<dim>1</dim>
					<dim>-1</dim>
				</port>
				<port id="1" precision="I32">
					<dim>-1</dim>
					<dim>1</dim>
				</port>
			</input>
			<output>
				<port id="2" precision="U8">
					<dim>-1</dim>
					<dim>-1</dim>
				</port>
			</output>
		</layer>
		<layer id="209" name="Select_4779" type="select">
			<data execOrder="165" execTimeMcs="not_executed" originalLayersNames="Select_4779" outputLayouts="bfyx" outputPrecisions="f16" primitiveType="select_gpu_ref__u8" runtimePrecision="u8" />
			<input>
				<port id="0" precision="U8">
					<dim>-1</dim>
					<dim>-1</dim>
				</port>
			</input>
			<output>
				<port id="1" precision="FP16">
					<dim>-1</dim>
					<dim>-1</dim>
				</port>
			</output>
		</layer>
		<layer id="210" name="Unsqueeze_4786" type="Reshape">
			<data execOrder="166" execTimeMcs="not_executed" originalLayersNames="Unsqueeze_4786" outputLayouts="bfyx" outputPrecisions="f16" primitiveType="undef" runtimePrecision="f16" />
			<input>
				<port id="0" precision="FP16">
					<dim>-1</dim>
					<dim>-1</dim>
				</port>
			</input>
			<output>
				<port id="1" precision="FP16">
					<dim>1</dim>
					<dim>1</dim>
					<dim>-1</dim>
					<dim>-1</dim>
				</port>
			</output>
		</layer>
		<layer id="211" name="Convert_4780" type="Reorder">
			<data execOrder="10" execTimeMcs="not_executed" originalLayersNames="Convert_4780" outputLayouts="bfyx" outputPrecisions="f16" primitiveType="reorder_data__i64" runtimePrecision="i64" />
			<input>
				<port id="0" precision="I64">
					<dim>-1</dim>
					<dim>-1</dim>
				</port>
			</input>
			<output>
				<port id="1" precision="FP16">
					<dim>-1</dim>
					<dim>-1</dim>
				</port>
			</output>
		</layer>
		<layer id="212" name="Equal_4781" type="Eltwise">
			<data execOrder="129" execTimeMcs="not_executed" originalLayersNames="Equal_4781" outputLayouts="bfyx" outputPrecisions="u8" primitiveType="generic_eltwise_ref__f16" runtimePrecision="f16" />
			<input>
				<port id="0" precision="FP16">
					<dim>-1</dim>
					<dim>-1</dim>
				</port>
			</input>
			<output>
				<port id="1" precision="U8">
					<dim>-1</dim>
					<dim>-1</dim>
				</port>
			</output>
		</layer>
		<layer id="213" name="Select_4782" type="select">
			<data execOrder="157" execTimeMcs="not_executed" originalLayersNames="Select_4782" outputLayouts="bfyx" outputPrecisions="f16" primitiveType="select_gpu_ref__u8" runtimePrecision="u8" />
			<input>
				<port id="0" precision="U8">
					<dim>-1</dim>
					<dim>-1</dim>
				</port>
			</input>
			<output>
				<port id="1" precision="FP16">
					<dim>-1</dim>
					<dim>-1</dim>
				</port>
			</output>
		</layer>
		<layer id="214" name="Unsqueeze_4784" type="Reshape">
			<data execOrder="158" execTimeMcs="not_executed" originalLayersNames="Unsqueeze_4784" outputLayouts="bfyx" outputPrecisions="f16" primitiveType="undef" runtimePrecision="f16" />
			<input>
				<port id="0" precision="FP16">
					<dim>-1</dim>
					<dim>-1</dim>
				</port>
			</input>
			<output>
				<port id="1" precision="FP16">
					<dim>-1</dim>
					<dim>1</dim>
					<dim>1</dim>
					<dim>-1</dim>
				</port>
			</output>
		</layer>
		<layer id="215" name="Add_4787" type="Eltwise">
			<data execOrder="167" execTimeMcs="not_executed" originalLayersNames="Add_4787" outputLayouts="bfyx" outputPrecisions="f16" primitiveType="generic_eltwise_ref__f16" runtimePrecision="f16" />
			<input>
				<port id="0" precision="FP16">
					<dim>1</dim>
					<dim>1</dim>
					<dim>-1</dim>
					<dim>-1</dim>
				</port>
				<port id="1" precision="FP16">
					<dim>-1</dim>
					<dim>1</dim>
					<dim>1</dim>
					<dim>-1</dim>
				</port>
			</input>
			<output>
				<port id="2" precision="FP16">
					<dim>-1</dim>
					<dim>1</dim>
					<dim>-1</dim>
					<dim>-1</dim>
				</port>
			</output>
		</layer>
		<layer id="216" name="Maximum_4788" type="Eltwise">
			<data execOrder="168" execTimeMcs="not_executed" originalLayersNames="Maximum_4788" outputLayouts="bfyx" outputPrecisions="f16" primitiveType="generic_eltwise_ref__f16" runtimePrecision="f16" />
			<input>
				<port id="0" precision="FP16">
					<dim>-1</dim>
					<dim>1</dim>
					<dim>-1</dim>
					<dim>-1</dim>
				</port>
			</input>
			<output>
				<port id="1" precision="FP16">
					<dim>-1</dim>
					<dim>1</dim>
					<dim>-1</dim>
					<dim>-1</dim>
				</port>
				<port id="2" precision="FP16">
					<dim>-1</dim>
					<dim>1</dim>
					<dim>-1</dim>
					<dim>-1</dim>
				</port>
				<port id="3" precision="FP16">
					<dim>-1</dim>
					<dim>1</dim>
					<dim>-1</dim>
					<dim>-1</dim>
				</port>
				<port id="4" precision="FP16">
					<dim>-1</dim>
					<dim>1</dim>
					<dim>-1</dim>
					<dim>-1</dim>
				</port>
				<port id="5" precision="FP16">
					<dim>-1</dim>
					<dim>1</dim>
					<dim>-1</dim>
					<dim>-1</dim>
				</port>
				<port id="6" precision="FP16">
					<dim>-1</dim>
					<dim>1</dim>
					<dim>-1</dim>
					<dim>-1</dim>
				</port>
				<port id="7" precision="FP16">
					<dim>-1</dim>
					<dim>1</dim>
					<dim>-1</dim>
					<dim>-1</dim>
				</port>
				<port id="8" precision="FP16">
					<dim>-1</dim>
					<dim>1</dim>
					<dim>-1</dim>
					<dim>-1</dim>
				</port>
			</output>
		</layer>
		<layer id="217" name="ScaledDotProductAttention_5146" type="scaled_dot_product_attention">
			<data execOrder="1144" execTimeMcs="not_executed" originalLayersNames="ScaledDotProductAttention_5146" outputLayouts="bfyx" outputPrecisions="f16" primitiveType="ocl::sdpa::opt__f16" runtimePrecision="f16" />
			<input>
				<port id="0" precision="FP16">
					<dim>-1</dim>
					<dim>16</dim>
					<dim>-1</dim>
					<dim>256</dim>
				</port>
				<port id="1" precision="FP16">
					<dim>-1</dim>
					<dim>4</dim>
					<dim>-1</dim>
					<dim>256</dim>
				</port>
				<port id="2" precision="FP16">
					<dim>-1</dim>
					<dim>4</dim>
					<dim>-1</dim>
					<dim>256</dim>
				</port>
				<port id="3" precision="FP16">
					<dim>-1</dim>
					<dim>1</dim>
					<dim>-1</dim>
					<dim>-1</dim>
				</port>
				<port id="4" precision="FP16">
					<dim>-1</dim>
					<dim>4</dim>
					<dim>-1</dim>
					<dim>256</dim>
				</port>
			</input>
			<output>
				<port id="5" precision="FP16">
					<dim>-1</dim>
					<dim>16</dim>
					<dim>-1</dim>
					<dim>256</dim>
				</port>
			</output>
		</layer>
		<layer id="218" name="Transpose_5147" type="Permute">
			<data execOrder="1145" execTimeMcs="not_executed" originalLayersNames="Transpose_5147" outputLayouts="bfyx" outputPrecisions="f16" primitiveType="permute_ref__f16" runtimePrecision="f16" />
			<input>
				<port id="0" precision="FP16">
					<dim>-1</dim>
					<dim>16</dim>
					<dim>-1</dim>
					<dim>256</dim>
				</port>
			</input>
			<output>
				<port id="1" precision="FP16">
					<dim>-1</dim>
					<dim>-1</dim>
					<dim>16</dim>
					<dim>256</dim>
				</port>
			</output>
		</layer>
		<layer id="219" name="Reshape_5148" type="Reshape">
			<data execOrder="1146" execTimeMcs="not_executed" originalLayersNames="Reshape_5148" outputLayouts="bfyx" outputPrecisions="f16" primitiveType="undef" runtimePrecision="f16" />
			<input>
				<port id="0" precision="FP16">
					<dim>-1</dim>
					<dim>-1</dim>
					<dim>16</dim>
					<dim>256</dim>
				</port>
			</input>
			<output>
				<port id="1" precision="FP16">
					<dim>-1</dim>
					<dim>-1</dim>
					<dim>4096</dim>
				</port>
			</output>
		</layer>
		<layer id="220" name="Slice_5074" type="StridedSlice">
			<data execOrder="1112" execTimeMcs="not_executed" originalLayersNames="Slice_5074" outputLayouts="bfyx" outputPrecisions="f16" primitiveType="strided_slice_ref__f16" runtimePrecision="f16" />
			<input>
				<port id="0" precision="FP16">
					<dim>-1</dim>
					<dim>-1</dim>
					<dim>16</dim>
					<dim>512</dim>
				</port>
			</input>
			<output>
				<port id="1" precision="FP16">
					<dim>-1</dim>
					<dim>-1</dim>
					<dim>16</dim>
					<dim>256</dim>
				</port>
			</output>
		</layer>
		<layer id="221" name="MatMul_5068_scale_up" type="Eltwise">
			<data execOrder="1113" execTimeMcs="not_executed" originalLayersNames="MatMul_5068_scale_up,Sigmoid_85579" outputLayouts="bfyx" outputPrecisions="f16" primitiveType="generic_eltwise_ref__f16" runtimePrecision="f16" />
			<input>
				<port id="0" precision="FP16">
					<dim>-1</dim>
					<dim>-1</dim>
					<dim>16</dim>
					<dim>256</dim>
				</port>
			</input>
			<output>
				<port id="1" precision="FP16">
					<dim>-1</dim>
					<dim>-1</dim>
					<dim>16</dim>
					<dim>256</dim>
				</port>
			</output>
		</layer>
		<layer id="222" name="Reshape_5075" type="Reshape">
			<data execOrder="1114" execTimeMcs="not_executed" originalLayersNames="Reshape_5075" outputLayouts="bfyx" outputPrecisions="f16" primitiveType="undef" runtimePrecision="f16" />
			<input>
				<port id="0" precision="FP16">
					<dim>-1</dim>
					<dim>-1</dim>
					<dim>16</dim>
					<dim>256</dim>
				</port>
			</input>
			<output>
				<port id="1" precision="FP16">
					<dim>-1</dim>
					<dim>-1</dim>
					<dim>4096</dim>
				</port>
			</output>
		</layer>
		<layer id="223" name="Multiply_5150" type="Eltwise">
			<data execOrder="1147" execTimeMcs="not_executed" originalLayersNames="Multiply_5150,MatMul_5151_scale_down" outputLayouts="bfyx" outputPrecisions="f16" primitiveType="generic_eltwise_ref__f16" runtimePrecision="f16" />
			<input>
				<port id="0" precision="FP16">
					<dim>-1</dim>
					<dim>-1</dim>
					<dim>4096</dim>
				</port>
				<port id="1" precision="FP16">
					<dim>-1</dim>
					<dim>-1</dim>
					<dim>4096</dim>
				</port>
			</input>
			<output>
				<port id="2" precision="FP16">
					<dim>-1</dim>
					<dim>-1</dim>
					<dim>4096</dim>
				</port>
			</output>
		</layer>
		<layer id="224" name="DynamicQuantize_115647" type="DynamicQuantize">
			<data execOrder="1148" execTimeMcs="not_executed" group_sizes="1, 1, -1" originalLayersNames="DynamicQuantize_115647" outputLayouts="bfyx" outputPrecisions="i8" primitiveType="dynamic_quantize_gpu_opt__f16" runtimePrecision="f16" />
			<input>
				<port id="0" precision="FP16">
					<dim>-1</dim>
					<dim>-1</dim>
					<dim>4096</dim>
				</port>
			</input>
			<output>
				<port id="1" precision="I8">
					<dim>-1</dim>
					<dim>-1</dim>
					<dim>4096</dim>
				</port>
				<port id="2" precision="I8">
					<dim>-1</dim>
					<dim>-1</dim>
					<dim>4096</dim>
				</port>
			</output>
		</layer>
		<layer id="225" name="MatMul_5151" type="FullyConnected">
			<data execOrder="1149" execTimeMcs="not_executed" originalLayersNames="MatMul_5151,Add_5152" outputLayouts="bfyx" outputPrecisions="f16" primitiveType="undef" runtimePrecision="i8" />
			<input>
				<port id="0" precision="I8">
					<dim>-1</dim>
					<dim>-1</dim>
					<dim>4096</dim>
				</port>
				<port id="1" precision="I8">
					<dim>-1</dim>
					<dim>-1</dim>
					<dim>4096</dim>
				</port>
				<port id="2" precision="FP16">
					<dim>-1</dim>
					<dim>-1</dim>
					<dim>2560</dim>
				</port>
			</input>
			<output>
				<port id="3" precision="FP16">
					<dim>-1</dim>
					<dim>-1</dim>
					<dim>2560</dim>
				</port>
				<port id="4" precision="FP16">
					<dim>-1</dim>
					<dim>-1</dim>
					<dim>2560</dim>
				</port>
			</output>
		</layer>
		<layer id="226" name="RMS_5154" type="rms">
			<data execOrder="1150" execTimeMcs="not_executed" originalLayersNames="RMS_5154,MatMul_5155_scale_down" outputLayouts="bfyx" outputPrecisions="f16" primitiveType="rms_gpu_bfyx_opt__f16" runtimePrecision="f16" />
			<input>
				<port id="0" precision="FP16">
					<dim>-1</dim>
					<dim>-1</dim>
					<dim>2560</dim>
				</port>
			</input>
			<output>
				<port id="1" precision="FP16">
					<dim>-1</dim>
					<dim>-1</dim>
					<dim>2560</dim>
				</port>
				<port id="2" precision="FP16">
					<dim>-1</dim>
					<dim>-1</dim>
					<dim>2560</dim>
				</port>
			</output>
		</layer>
		<layer id="227" name="DynamicQuantize_115653" type="DynamicQuantize">
			<data execOrder="1153" execTimeMcs="not_executed" group_sizes="1, 1, -1" originalLayersNames="DynamicQuantize_115653" outputLayouts="bfyx" outputPrecisions="i8" primitiveType="dynamic_quantize_gpu_opt__f16" runtimePrecision="f16" />
			<input>
				<port id="0" precision="FP16">
					<dim>-1</dim>
					<dim>-1</dim>
					<dim>2560</dim>
				</port>
			</input>
			<output>
				<port id="1" precision="I8">
					<dim>-1</dim>
					<dim>-1</dim>
					<dim>2560</dim>
				</port>
				<port id="2" precision="I8">
					<dim>-1</dim>
					<dim>-1</dim>
					<dim>2560</dim>
				</port>
			</output>
		</layer>
		<layer id="228" name="DynamicQuantize_115659" type="DynamicQuantize">
			<data execOrder="1151" execTimeMcs="not_executed" group_sizes="1, 1, -1" originalLayersNames="DynamicQuantize_115659" outputLayouts="bfyx" outputPrecisions="i8" primitiveType="dynamic_quantize_gpu_opt__f16" runtimePrecision="f16" />
			<input>
				<port id="0" precision="FP16">
					<dim>-1</dim>
					<dim>-1</dim>
					<dim>2560</dim>
				</port>
			</input>
			<output>
				<port id="1" precision="I8">
					<dim>-1</dim>
					<dim>-1</dim>
					<dim>2560</dim>
				</port>
				<port id="2" precision="I8">
					<dim>-1</dim>
					<dim>-1</dim>
					<dim>2560</dim>
				</port>
			</output>
		</layer>
		<layer id="229" name="MatMul_5156" type="FullyConnected">
			<data execOrder="1152" execTimeMcs="not_executed" originalLayersNames="MatMul_5156" outputLayouts="bfyx" outputPrecisions="f16" primitiveType="undef" runtimePrecision="i8" />
			<input>
				<port id="0" precision="I8">
					<dim>-1</dim>
					<dim>-1</dim>
					<dim>2560</dim>
				</port>
				<port id="1" precision="I8">
					<dim>-1</dim>
					<dim>-1</dim>
					<dim>2560</dim>
				</port>
			</input>
			<output>
				<port id="2" precision="FP16">
					<dim>-1</dim>
					<dim>-1</dim>
					<dim>9216</dim>
				</port>
			</output>
		</layer>
		<layer id="230" name="MatMul_5155" type="FullyConnected">
			<data execOrder="1154" execTimeMcs="not_executed" originalLayersNames="MatMul_5155,MatMul_5155_scale_up,Swish_5157,Multiply_5158_mm" outputLayouts="bfyx" outputPrecisions="f16" primitiveType="undef" runtimePrecision="i8" />
			<input>
				<port id="0" precision="I8">
					<dim>-1</dim>
					<dim>-1</dim>
					<dim>2560</dim>
				</port>
				<port id="1" precision="I8">
					<dim>-1</dim>
					<dim>-1</dim>
					<dim>2560</dim>
				</port>
				<port id="2" precision="FP16">
					<dim>-1</dim>
					<dim>-1</dim>
					<dim>9216</dim>
				</port>
			</input>
			<output>
				<port id="3" precision="FP16">
					<dim>-1</dim>
					<dim>-1</dim>
					<dim>9216</dim>
				</port>
			</output>
		</layer>
		<layer id="231" name="DynamicQuantize_115665" type="DynamicQuantize">
			<data execOrder="1155" execTimeMcs="not_executed" group_sizes="1, 1, -1" originalLayersNames="DynamicQuantize_115665" outputLayouts="bfyx" outputPrecisions="i8" primitiveType="dynamic_quantize_gpu_opt__f16" runtimePrecision="f16" />
			<input>
				<port id="0" precision="FP16">
					<dim>-1</dim>
					<dim>-1</dim>
					<dim>9216</dim>
				</port>
			</input>
			<output>
				<port id="1" precision="I8">
					<dim>-1</dim>
					<dim>-1</dim>
					<dim>9216</dim>
				</port>
				<port id="2" precision="I8">
					<dim>-1</dim>
					<dim>-1</dim>
					<dim>9216</dim>
				</port>
			</output>
		</layer>
		<layer id="232" name="MatMul_5159" type="FullyConnected">
			<data execOrder="1156" execTimeMcs="not_executed" originalLayersNames="MatMul_5159,Add_5160" outputLayouts="bfyx" outputPrecisions="f16" primitiveType="undef" runtimePrecision="i8" />
			<input>
				<port id="0" precision="I8">
					<dim>-1</dim>
					<dim>-1</dim>
					<dim>9216</dim>
				</port>
				<port id="1" precision="I8">
					<dim>-1</dim>
					<dim>-1</dim>
					<dim>9216</dim>
				</port>
				<port id="2" precision="FP16">
					<dim>-1</dim>
					<dim>-1</dim>
					<dim>2560</dim>
				</port>
			</input>
			<output>
				<port id="3" precision="FP16">
					<dim>-1</dim>
					<dim>-1</dim>
					<dim>2560</dim>
				</port>
				<port id="4" precision="FP16">
					<dim>-1</dim>
					<dim>-1</dim>
					<dim>2560</dim>
				</port>
			</output>
		</layer>
		<layer id="233" name="RMS_5162" type="rms">
			<data execOrder="1157" execTimeMcs="not_executed" originalLayersNames="RMS_5162,Multiply_5165,MatMul_5166_scale_down" outputLayouts="bfyx" outputPrecisions="f16" primitiveType="rms_gpu_bfyx_opt__f16" runtimePrecision="f16" />
			<input>
				<port id="0" precision="FP16">
					<dim>-1</dim>
					<dim>-1</dim>
					<dim>2560</dim>
				</port>
				<port id="1" precision="FP16">
					<dim>-1</dim>
					<dim>-1</dim>
					<dim>1</dim>
				</port>
			</input>
			<output>
				<port id="2" precision="FP16">
					<dim>-1</dim>
					<dim>-1</dim>
					<dim>2560</dim>
				</port>
				<port id="3" precision="FP16">
					<dim>-1</dim>
					<dim>-1</dim>
					<dim>2560</dim>
				</port>
				<port id="4" precision="FP16">
					<dim>-1</dim>
					<dim>-1</dim>
					<dim>2560</dim>
				</port>
				<port id="5" precision="FP16">
					<dim>-1</dim>
					<dim>-1</dim>
					<dim>2560</dim>
				</port>
				<port id="6" precision="FP16">
					<dim>-1</dim>
					<dim>-1</dim>
					<dim>2560</dim>
				</port>
			</output>
		</layer>
		<layer id="234" name="DynamicQuantize_115671" type="DynamicQuantize">
			<data execOrder="1174" execTimeMcs="not_executed" group_sizes="1, 1, -1" originalLayersNames="DynamicQuantize_115671" outputLayouts="bfyx" outputPrecisions="i8" primitiveType="dynamic_quantize_gpu_opt__f16" runtimePrecision="f16" />
			<input>
				<port id="0" precision="FP16">
					<dim>-1</dim>
					<dim>-1</dim>
					<dim>2560</dim>
				</port>
			</input>
			<output>
				<port id="1" precision="I8">
					<dim>-1</dim>
					<dim>-1</dim>
					<dim>2560</dim>
				</port>
				<port id="2" precision="I8">
					<dim>-1</dim>
					<dim>-1</dim>
					<dim>2560</dim>
				</port>
			</output>
		</layer>
		<layer id="235" name="MatMul_5166" type="FullyConnected">
…
		<edge from-layer="874" from-port="2" to-layer="875" to-port="0" />
		<edge from-layer="875" from-port="1" to-layer="876" to-port="0" />
		<edge from-layer="876" from-port="1" to-layer="881" to-port="3" />
		<edge from-layer="877" from-port="1" to-layer="878" to-port="0" />
		<edge from-layer="877" from-port="1" to-layer="878" to-port="1" />
		<edge from-layer="878" from-port="2" to-layer="881" to-port="4" />
		<edge from-layer="879" from-port="1" to-layer="880" to-port="0" />
		<edge from-layer="880" from-port="1" to-layer="881" to-port="5" />
		<edge from-layer="881" from-port="7" to-layer="886" to-port="0" />
		<edge from-layer="881" from-port="7" to-layer="1279" to-port="0" />
		<edge from-layer="882" from-port="1" to-layer="883" to-port="1" />
		<edge from-layer="882" from-port="1" to-layer="883" to-port="0" />
		<edge from-layer="883" from-port="2" to-layer="884" to-port="0" />
		<edge from-layer="884" from-port="1" to-layer="885" to-port="0" />
		<edge from-layer="885" from-port="1" to-layer="886" to-port="1" />
		<edge from-layer="886" from-port="2" to-layer="887" to-port="0" />
		<edge from-layer="887" from-port="1" to-layer="888" to-port="0" />
		<edge from-layer="888" from-port="1" to-layer="889" to-port="0" />
		<edge from-layer="888" from-port="1" to-layer="889" to-port="1" />
		<edge from-layer="889" from-port="3" to-layer="890" to-port="0" />
		<edge from-layer="889" from-port="3" to-layer="896" to-port="2" />
		<edge from-layer="890" from-port="1" to-layer="891" to-port="0" />
		<edge from-layer="890" from-port="1" to-layer="892" to-port="0" />
		<edge from-layer="891" from-port="1" to-layer="894" to-port="1" />
		<edge from-layer="891" from-port="1" to-layer="894" to-port="0" />
		<edge from-layer="892" from-port="1" to-layer="893" to-port="1" />
		<edge from-layer="892" from-port="1" to-layer="893" to-port="0" />
		<edge from-layer="893" from-port="2" to-layer="894" to-port="2" />
		<edge from-layer="894" from-port="3" to-layer="895" to-port="0" />
		<edge from-layer="895" from-port="1" to-layer="896" to-port="0" />
		<edge from-layer="895" from-port="1" to-layer="896" to-port="1" />
		<edge from-layer="896" from-port="3" to-layer="897" to-port="0" />
		<edge from-layer="896" from-port="3" to-layer="929" to-port="2" />
		<edge from-layer="897" from-port="2" to-layer="898" to-port="0" />
		<edge from-layer="897" from-port="2" to-layer="901" to-port="0" />
		<edge from-layer="897" from-port="2" to-layer="922" to-port="0" />
		<edge from-layer="897" from-port="2" to-layer="913" to-port="0" />
		<edge from-layer="897" from-port="2" to-layer="917" to-port="0" />
		<edge from-layer="898" from-port="1" to-layer="899" to-port="0" />
		<edge from-layer="898" from-port="1" to-layer="899" to-port="1" />
		<edge from-layer="899" from-port="2" to-layer="900" to-port="0" />
		<edge from-layer="900" from-port="1" to-layer="905" to-port="0" />
		<edge from-layer="901" from-port="1" to-layer="902" to-port="0" />
		<edge from-layer="902" from-port="1" to-layer="903" to-port="0" />
		<edge from-layer="902" from-port="1" to-layer="919" to-port="0" />
		<edge from-layer="903" from-port="1" to-layer="904" to-port="0" />
		<edge from-layer="904" from-port="1" to-layer="905" to-port="2" />
		<edge from-layer="905" from-port="4" to-layer="906" to-port="0" />
		<edge from-layer="905" from-port="4" to-layer="1280" to-port="0" />
		<edge from-layer="906" from-port="1" to-layer="907" to-port="0" />
		<edge from-layer="906" from-port="1" to-layer="909" to-port="0" />
		<edge from-layer="906" from-port="1" to-layer="911" to-port="0" />
		<edge from-layer="907" from-port="1" to-layer="908" to-port="0" />
		<edge from-layer="908" from-port="1" to-layer="921" to-port="0" />
		<edge from-layer="909" from-port="1" to-layer="910" to-port="0" />
		<edge from-layer="910" from-port="1" to-layer="921" to-port="1" />
		<edge from-layer="911" from-port="1" to-layer="912" to-port="0" />
		<edge from-layer="912" from-port="1" to-layer="921" to-port="2" />
		<edge from-layer="913" from-port="1" to-layer="914" to-port="0" />
		<edge from-layer="913" from-port="1" to-layer="914" to-port="1" />
		<edge from-layer="914" from-port="2" to-layer="915" to-port="0" />
		<edge from-layer="915" from-port="1" to-layer="916" to-port="0" />
		<edge from-layer="916" from-port="1" to-layer="921" to-port="3" />
		<edge from-layer="917" from-port="1" to-layer="918" to-port="0" />
		<edge from-layer="917" from-port="1" to-layer="918" to-port="1" />
		<edge from-layer="918" from-port="2" to-layer="921" to-port="4" />
		<edge from-layer="919" from-port="1" to-layer="920" to-port="0" />
		<edge from-layer="920" from-port="1" to-layer="921" to-port="5" />
		<edge from-layer="921" from-port="7" to-layer="1281" to-port="0" />
		<edge from-layer="921" from-port="7" to-layer="926" to-port="0" />
		<edge from-layer="922" from-port="1" to-layer="923" to-port="0" />
		<edge from-layer="922" from-port="1" to-layer="923" to-port="1" />
		<edge from-layer="923" from-port="2" to-layer="924" to-port="0" />
		<edge from-layer="924" from-port="1" to-layer="925" to-port="0" />
		<edge from-layer="925" from-port="1" to-layer="926" to-port="1" />
		<edge from-layer="926" from-port="2" to-layer="927" to-port="0" />
		<edge from-layer="927" from-port="1" to-layer="928" to-port="0" />
		<edge from-layer="928" from-port="1" to-layer="929" to-port="0" />
		<edge from-layer="928" from-port="1" to-layer="929" to-port="1" />
		<edge from-layer="929" from-port="3" to-layer="930" to-port="0" />
		<edge from-layer="929" from-port="3" to-layer="936" to-port="2" />
		<edge from-layer="930" from-port="1" to-layer="931" to-port="0" />
		<edge from-layer="930" from-port="1" to-layer="932" to-port="0" />
		<edge from-layer="931" from-port="1" to-layer="934" to-port="1" />
		<edge from-layer="931" from-port="1" to-layer="934" to-port="0" />
		<edge from-layer="932" from-port="1" to-layer="933" to-port="1" />
		<edge from-layer="932" from-port="1" to-layer="933" to-port="0" />
		<edge from-layer="933" from-port="2" to-layer="934" to-port="2" />
		<edge from-layer="934" from-port="3" to-layer="935" to-port="0" />
		<edge from-layer="935" from-port="1" to-layer="936" to-port="0" />
		<edge from-layer="935" from-port="1" to-layer="936" to-port="1" />
		<edge from-layer="936" from-port="3" to-layer="937" to-port="0" />
		<edge from-layer="936" from-port="3" to-layer="969" to-port="2" />
		<edge from-layer="937" from-port="2" to-layer="957" to-port="0" />
		<edge from-layer="937" from-port="2" to-layer="953" to-port="0" />
		<edge from-layer="937" from-port="2" to-layer="938" to-port="0" />
		<edge from-layer="937" from-port="2" to-layer="941" to-port="0" />
		<edge from-layer="937" from-port="2" to-layer="962" to-port="0" />
		<edge from-layer="938" from-port="1" to-layer="939" to-port="0" />
		<edge from-layer="938" from-port="1" to-layer="939" to-port="1" />
		<edge from-layer="939" from-port="2" to-layer="940" to-port="0" />
		<edge from-layer="940" from-port="1" to-layer="945" to-port="0" />
		<edge from-layer="941" from-port="1" to-layer="942" to-port="0" />
		<edge from-layer="942" from-port="1" to-layer="959" to-port="0" />
		<edge from-layer="942" from-port="1" to-layer="943" to-port="0" />
		<edge from-layer="943" from-port="1" to-layer="944" to-port="0" />
		<edge from-layer="944" from-port="1" to-layer="945" to-port="2" />
		<edge from-layer="945" from-port="4" to-layer="1282" to-port="0" />
		<edge from-layer="945" from-port="4" to-layer="946" to-port="0" />
		<edge from-layer="946" from-port="1" to-layer="951" to-port="0" />
		<edge from-layer="946" from-port="1" to-layer="947" to-port="0" />
		<edge from-layer="946" from-port="1" to-layer="949" to-port="0" />
		<edge from-layer="947" from-port="1" to-layer="948" to-port="0" />
		<edge from-layer="948" from-port="1" to-layer="961" to-port="0" />
		<edge from-layer="949" from-port="1" to-layer="950" to-port="0" />
		<edge from-layer="950" from-port="1" to-layer="961" to-port="1" />
		<edge from-layer="951" from-port="1" to-layer="952" to-port="0" />
		<edge from-layer="952" from-port="1" to-layer="961" to-port="2" />
		<edge from-layer="953" from-port="1" to-layer="954" to-port="1" />
		<edge from-layer="953" from-port="1" to-layer="954" to-port="0" />
		<edge from-layer="954" from-port="2" to-layer="955" to-port="0" />
		<edge from-layer="955" from-port="1" to-layer="956" to-port="0" />
		<edge from-layer="956" from-port="1" to-layer="961" to-port="3" />
		<edge from-layer="957" from-port="1" to-layer="958" to-port="1" />
		<edge from-layer="957" from-port="1" to-layer="958" to-port="0" />
		<edge from-layer="958" from-port="2" to-layer="961" to-port="4" />
		<edge from-layer="959" from-port="1" to-layer="960" to-port="0" />
		<edge from-layer="960" from-port="1" to-layer="961" to-port="5" />
		<edge from-layer="961" from-port="7" to-layer="966" to-port="0" />
		<edge from-layer="961" from-port="7" to-layer="1283" to-port="0" />
		<edge from-layer="962" from-port="1" to-layer="963" to-port="0" />
		<edge from-layer="962" from-port="1" to-layer="963" to-port="1" />
		<edge from-layer="963" from-port="2" to-layer="964" to-port="0" />
		<edge from-layer="964" from-port="1" to-layer="965" to-port="0" />
		<edge from-layer="965" from-port="1" to-layer="966" to-port="1" />
		<edge from-layer="966" from-port="2" to-layer="967" to-port="0" />
		<edge from-layer="967" from-port="1" to-layer="968" to-port="0" />
		<edge from-layer="968" from-port="1" to-layer="969" to-port="0" />
		<edge from-layer="968" from-port="1" to-layer="969" to-port="1" />
		<edge from-layer="969" from-port="3" to-layer="976" to-port="2" />
		<edge from-layer="969" from-port="3" to-layer="970" to-port="0" />
		<edge from-layer="970" from-port="1" to-layer="972" to-port="0" />
		<edge from-layer="970" from-port="1" to-layer="971" to-port="0" />
		<edge from-layer="971" from-port="1" to-layer="974" to-port="0" />
		<edge from-layer="971" from-port="1" to-layer="974" to-port="1" />
		<edge from-layer="972" from-port="1" to-layer="973" to-port="1" />
		<edge from-layer="972" from-port="1" to-layer="973" to-port="0" />
		<edge from-layer="973" from-port="2" to-layer="974" to-port="2" />
		<edge from-layer="974" from-port="3" to-layer="975" to-port="0" />
		<edge from-layer="975" from-port="1" to-layer="976" to-port="1" />
		<edge from-layer="975" from-port="1" to-layer="976" to-port="0" />
		<edge from-layer="976" from-port="3" to-layer="1005" to-port="2" />
		<edge from-layer="976" from-port="3" to-layer="1249" to-port="3" />
		<edge from-layer="976" from-port="3" to-layer="977" to-port="0" />
		<edge from-layer="977" from-port="1" to-layer="978" to-port="0" />
		<edge from-layer="978" from-port="1" to-layer="979" to-port="0" />
		<edge from-layer="978" from-port="1" to-layer="979" to-port="1" />
		<edge from-layer="979" from-port="2" to-layer="992" to-port="0" />
		<edge from-layer="979" from-port="2" to-layer="986" to-port="0" />
		<edge from-layer="979" from-port="2" to-layer="980" to-port="0" />
		<edge from-layer="980" from-port="1" to-layer="981" to-port="0" />
		<edge from-layer="981" from-port="1" to-layer="1000" to-port="0" />
		<edge from-layer="981" from-port="1" to-layer="982" to-port="0" />
		<edge from-layer="982" from-port="1" to-layer="983" to-port="0" />
		<edge from-layer="983" from-port="1" to-layer="984" to-port="0" />
		<edge from-layer="984" from-port="3" to-layer="997" to-port="0" />
		<edge from-layer="985" from-port="1" to-layer="990" to-port="0" />
		<edge from-layer="986" from-port="1" to-layer="987" to-port="0" />
		<edge from-layer="987" from-port="1" to-layer="988" to-port="0" />
		<edge from-layer="988" from-port="1" to-layer="989" to-port="0" />
		<edge from-layer="989" from-port="3" to-layer="990" to-port="1" />
		<edge from-layer="990" from-port="3" to-layer="997" to-port="1" />
		<edge from-layer="990" from-port="3" to-layer="997" to-port="4" />
		<edge from-layer="991" from-port="1" to-layer="996" to-port="0" />
		<edge from-layer="992" from-port="1" to-layer="993" to-port="0" />
		<edge from-layer="993" from-port="1" to-layer="994" to-port="0" />
		<edge from-layer="994" from-port="1" to-layer="995" to-port="0" />
		<edge from-layer="995" from-port="1" to-layer="996" to-port="1" />
		<edge from-layer="996" from-port="3" to-layer="997" to-port="2" />
		<edge from-layer="997" from-port="5" to-layer="998" to-port="0" />
		<edge from-layer="998" from-port="1" to-layer="999" to-port="0" />
		<edge from-layer="999" from-port="1" to-layer="1003" to-port="0" />
		<edge from-layer="1000" from-port="1" to-layer="1001" to-port="0" />
		<edge from-layer="1001" from-port="1" to-layer="1002" to-port="0" />
		<edge from-layer="1002" from-port="1" to-layer="1003" to-port="1" />
		<edge from-layer="1003" from-port="2" to-layer="1004" to-port="0" />
		<edge from-layer="1004" from-port="1" to-layer="1005" to-port="0" />
		<edge from-layer="1004" from-port="1" to-layer="1005" to-port="1" />
		<edge from-layer="1005" from-port="3" to-layer="1006" to-port="0" />
		<edge from-layer="1005" from-port="3" to-layer="1012" to-port="2" />
		<edge from-layer="1006" from-port="1" to-layer="1007" to-port="0" />
		<edge from-layer="1006" from-port="1" to-layer="1008" to-port="0" />
		<edge from-layer="1007" from-port="1" to-layer="1010" to-port="1" />
		<edge from-layer="1007" from-port="1" to-layer="1010" to-port="0" />
		<edge from-layer="1008" from-port="1" to-layer="1009" to-port="1" />
		<edge from-layer="1008" from-port="1" to-layer="1009" to-port="0" />
		<edge from-layer="1009" from-port="2" to-layer="1010" to-port="2" />
		<edge from-layer="1010" from-port="3" to-layer="1011" to-port="0" />
		<edge from-layer="1011" from-port="1" to-layer="1012" to-port="1" />
		<edge from-layer="1011" from-port="1" to-layer="1012" to-port="0" />
		<edge from-layer="1012" from-port="3" to-layer="1013" to-port="0" />
		<edge from-layer="1012" from-port="3" to-layer="1045" to-port="2" />
		<edge from-layer="1013" from-port="2" to-layer="1017" to-port="0" />
		<edge from-layer="1013" from-port="2" to-layer="1038" to-port="0" />
		<edge from-layer="1013" from-port="2" to-layer="1033" to-port="0" />
		<edge from-layer="1013" from-port="2" to-layer="1029" to-port="0" />
		<edge from-layer="1013" from-port="2" to-layer="1014" to-port="0" />
		<edge from-layer="1014" from-port="1" to-layer="1015" to-port="0" />
		<edge from-layer="1014" from-port="1" to-layer="1015" to-port="1" />
		<edge from-layer="1015" from-port="2" to-layer="1016" to-port="0" />
		<edge from-layer="1016" from-port="1" to-layer="1021" to-port="0" />
		<edge from-layer="1017" from-port="1" to-layer="1018" to-port="0" />
		<edge from-layer="1018" from-port="1" to-layer="1019" to-port="0" />
		<edge from-layer="1018" from-port="1" to-layer="1035" to-port="0" />
		<edge from-layer="1019" from-port="1" to-layer="1020" to-port="0" />
		<edge from-layer="1020" from-port="1" to-layer="1021" to-port="2" />
		<edge from-layer="1021" from-port="4" to-layer="1022" to-port="0" />
		<edge from-layer="1021" from-port="4" to-layer="1284" to-port="0" />
		<edge from-layer="1022" from-port="1" to-layer="1023" to-port="0" />
		<edge from-layer="1022" from-port="1" to-layer="1027" to-port="0" />
		<edge from-layer="1022" from-port="1" to-layer="1025" to-port="0" />
		<edge from-layer="1023" from-port="1" to-layer="1024" to-port="0" />
		<edge from-layer="1024" from-port="1" to-layer="1037" to-port="0" />
		<edge from-layer="1025" from-port="1" to-layer="1026" to-port="0" />
		<edge from-layer="1026" from-port="1" to-layer="1037" to-port="1" />
		<edge from-layer="1027" from-port="1" to-layer="1028" to-port="0" />
		<edge from-layer="1028" from-port="1" to-layer="1037" to-port="2" />
		<edge from-layer="1029" from-port="1" to-layer="1030" to-port="0" />
		<edge from-layer="1029" from-port="1" to-layer="1030" to-port="1" />
		<edge from-layer="1030" from-port="2" to-layer="1031" to-port="0" />
		<edge from-layer="1031" from-port="1" to-layer="1032" to-port="0" />
		<edge from-layer="1032" from-port="1" to-layer="1037" to-port="3" />
		<edge from-layer="1033" from-port="1" to-layer="1034" to-port="0" />
		<edge from-layer="1033" from-port="1" to-layer="1034" to-port="1" />
		<edge from-layer="1034" from-port="2" to-layer="1037" to-port="4" />
		<edge from-layer="1035" from-port="1" to-layer="1036" to-port="0" />
		<edge from-layer="1036" from-port="1" to-layer="1037" to-port="5" />
		<edge from-layer="1037" from-port="7" to-layer="1042" to-port="0" />
		<edge from-layer="1037" from-port="7" to-layer="1285" to-port="0" />
		<edge from-layer="1038" from-port="1" to-layer="1039" to-port="1" />
		<edge from-layer="1038" from-port="1" to-layer="1039" to-port="0" />
		<edge from-layer="1039" from-port="2" to-layer="1040" to-port="0" />
		<edge from-layer="1040" from-port="1" to-layer="1041" to-port="0" />
		<edge from-layer="1041" from-port="1" to-layer="1042" to-port="1" />
		<edge from-layer="1042" from-port="2" to-layer="1043" to-port="0" />
		<edge from-layer="1043" from-port="1" to-layer="1044" to-port="0" />
		<edge from-layer="1044" from-port="1" to-layer="1045" to-port="1" />
		<edge from-layer="1044" from-port="1" to-layer="1045" to-port="0" />
		<edge from-layer="1045" from-port="3" to-layer="1052" to-port="2" />
		<edge from-layer="1045" from-port="3" to-layer="1046" to-port="0" />
		<edge from-layer="1046" from-port="1" to-layer="1047" to-port="0" />
		<edge from-layer="1046" from-port="1" to-layer="1048" to-port="0" />
		<edge from-layer="1047" from-port="1" to-layer="1050" to-port="0" />
		<edge from-layer="1047" from-port="1" to-layer="1050" to-port="1" />
		<edge from-layer="1048" from-port="1" to-layer="1049" to-port="0" />
		<edge from-layer="1048" from-port="1" to-layer="1049" to-port="1" />
		<edge from-layer="1049" from-port="2" to-layer="1050" to-port="2" />
		<edge from-layer="1050" from-port="3" to-layer="1051" to-port="0" />
		<edge from-layer="1051" from-port="1" to-layer="1052" to-port="1" />
		<edge from-layer="1051" from-port="1" to-layer="1052" to-port="0" />
		<edge from-layer="1052" from-port="3" to-layer="1085" to-port="2" />
		<edge from-layer="1052" from-port="3" to-layer="1053" to-port="0" />
		<edge from-layer="1053" from-port="2" to-layer="1057" to-port="0" />
		<edge from-layer="1053" from-port="2" to-layer="1073" to-port="0" />
		<edge from-layer="1053" from-port="2" to-layer="1078" to-port="0" />
		<edge from-layer="1053" from-port="2" to-layer="1054" to-port="0" />
		<edge from-layer="1053" from-port="2" to-layer="1069" to-port="0" />
		<edge from-layer="1054" from-port="1" to-layer="1055" to-port="0" />
		<edge from-layer="1054" from-port="1" to-layer="1055" to-port="1" />
		<edge from-layer="1055" from-port="2" to-layer="1056" to-port="0" />
		<edge from-layer="1056" from-port="1" to-layer="1061" to-port="0" />
		<edge from-layer="1057" from-port="1" to-layer="1058" to-port="0" />
		<edge from-layer="1058" from-port="1" to-layer="1059" to-port="0" />
		<edge from-layer="1058" from-port="1" to-layer="1075" to-port="0" />
		<edge from-layer="1059" from-port="1" to-layer="1060" to-port="0" />
		<edge from-layer="1060" from-port="1" to-layer="1061" to-port="2" />
		<edge from-layer="1061" from-port="4" to-layer="1286" to-port="0" />
		<edge from-layer="1061" from-port="4" to-layer="1062" to-port="0" />
		<edge from-layer="1062" from-port="1" to-layer="1065" to-port="0" />
		<edge from-layer="1062" from-port="1" to-layer="1063" to-port="0" />
		<edge from-layer="1062" from-port="1" to-layer="1067" to-port="0" />
		<edge from-layer="1063" from-port="1" to-layer="1064" to-port="0" />
		<edge from-layer="1064" from-port="1" to-layer="1077" to-port="0" />
		<edge from-layer="1065" from-port="1" to-layer="1066" to-port="0" />
		<edge from-layer="1066" from-port="1" to-layer="1077" to-port="1" />
		<edge from-layer="1067" from-port="1" to-layer="1068" to-port="0" />
		<edge from-layer="1068" from-port="1" to-layer="1077" to-port="2" />
		<edge from-layer="1069" from-port="1" to-layer="1070" to-port="0" />
		<edge from-layer="1069" from-port="1" to-layer="1070" to-port="1" />
		<edge from-layer="1070" from-port="2" to-layer="1071" to-port="0" />
		<edge from-layer="1071" from-port="1" to-layer="1072" to-port="0" />
		<edge from-layer="1072" from-port="1" to-layer="1077" to-port="3" />
		<edge from-layer="1073" from-port="1" to-layer="1074" to-port="0" />
		<edge from-layer="1073" from-port="1" to-layer="1074" to-port="1" />
		<edge from-layer="1074" from-port="2" to-layer="1077" to-port="4" />
		<edge from-layer="1075" from-port="1" to-layer="1076" to-port="0" />
		<edge from-layer="1076" from-port="1" to-layer="1077" to-port="5" />
		<edge from-layer="1077" from-port="7" to-layer="1287" to-port="0" />
		<edge from-layer="1077" from-port="7" to-layer="1082" to-port="0" />
		<edge from-layer="1078" from-port="1" to-layer="1079" to-port="0" />
		<edge from-layer="1078" from-port="1" to-layer="1079" to-port="1" />
		<edge from-layer="1079" from-port="2" to-layer="1080" to-port="0" />
		<edge from-layer="1080" from-port="1" to-layer="1081" to-port="0" />
		<edge from-layer="1081" from-port="1" to-layer="1082" to-port="1" />
		<edge from-layer="1082" from-port="2" to-layer="1083" to-port="0" />
		<edge from-layer="1083" from-port="1" to-layer="1084" to-port="0" />
		<edge from-layer="1084" from-port="1" to-layer="1085" to-port="1" />
		<edge from-layer="1084" from-port="1" to-layer="1085" to-port="0" />
		<edge from-layer="1085" from-port="3" to-layer="1092" to-port="2" />
		<edge from-layer="1085" from-port="3" to-layer="1086" to-port="0" />
		<edge from-layer="1086" from-port="1" to-layer="1088" to-port="0" />
		<edge from-layer="1086" from-port="1" to-layer="1087" to-port="0" />
		<edge from-layer="1087" from-port="1" to-layer="1090" to-port="0" />
		<edge from-layer="1087" from-port="1" to-layer="1090" to-port="1" />
		<edge from-layer="1088" from-port="1" to-layer="1089" to-port="0" />
		<edge from-layer="1088" from-port="1" to-layer="1089" to-port="1" />
		<edge from-layer="1089" from-port="2" to-layer="1090" to-port="2" />
		<edge from-layer="1090" from-port="3" to-layer="1091" to-port="0" />
		<edge from-layer="1091" from-port="1" to-layer="1092" to-port="0" />
		<edge from-layer="1091" from-port="1" to-layer="1092" to-port="1" />
		<edge from-layer="1092" from-port="3" to-layer="1125" to-port="2" />
		<edge from-layer="1092" from-port="3" to-layer="1093" to-port="0" />
		<edge from-layer="1093" from-port="2" to-layer="1113" to-port="0" />
		<edge from-layer="1093" from-port="2" to-layer="1094" to-port="0" />
		<edge from-layer="1093" from-port="2" to-layer="1118" to-port="0" />
		<edge from-layer="1093" from-port="2" to-layer="1097" to-port="0" />
		<edge from-layer="1093" from-port="2" to-layer="1109" to-port="0" />
		<edge from-layer="1094" from-port="1" to-layer="1095" to-port="0" />
		<edge from-layer="1094" from-port="1" to-layer="1095" to-port="1" />
		<edge from-layer="1095" from-port="2" to-layer="1096" to-port="0" />
		<edge from-layer="1096" from-port="1" to-layer="1101" to-port="0" />
		<edge from-layer="1097" from-port="1" to-layer="1098" to-port="0" />
		<edge from-layer="1098" from-port="1" to-layer="1115" to-port="0" />
		<edge from-layer="1098" from-port="1" to-layer="1099" to-port="0" />
		<edge from-layer="1099" from-port="1" to-layer="1100" to-port="0" />
		<edge from-layer="1100" from-port="1" to-layer="1101" to-port="2" />
		<edge from-layer="1101" from-port="4" to-layer="1288" to-port="0" />
		<edge from-layer="1101" from-port="4" to-layer="1102" to-port="0" />
		<edge from-layer="1102" from-port="1" to-layer="1105" to-port="0" />
		<edge from-layer="1102" from-port="1" to-layer="1103" to-port="0" />
		<edge from-layer="1102" from-port="1" to-layer="1107" to-port="0" />
		<edge from-layer="1103" from-port="1" to-layer="1104" to-port="0" />
		<edge from-layer="1104" from-port="1" to-layer="1117" to-port="0" />
		<edge from-layer="1105" from-port="1" to-layer="1106" to-port="0" />
		<edge from-layer="1106" from-port="1" to-layer="1117" to-port="1" />
		<edge from-layer="1107" from-port="1" to-layer="1108" to-port="0" />
		<edge from-layer="1108" from-port="1" to-layer="1117" to-port="2" />
		<edge from-layer="1109" from-port="1" to-layer="1110" to-port="0" />
		<edge from-layer="1109" from-port="1" to-layer="1110" to-port="1" />
		<edge from-layer="1110" from-port="2" to-layer="1111" to-port="0" />
		<edge from-layer="1111" from-port="1" to-layer="1112" to-port="0" />
		<edge from-layer="1112" from-port="1" to-layer="1117" to-port="3" />
		<edge from-layer="1113" from-port="1" to-layer="1114" to-port="1" />
		<edge from-layer="1113" from-port="1" to-layer="1114" to-port="0" />
		<edge from-layer="1114" from-port="2" to-layer="1117" to-port="4" />
		<edge from-layer="1115" from-port="1" to-layer="1116" to-port="0" />
		<edge from-layer="1116" from-port="1" to-layer="1117" to-port="5" />
		<edge from-layer="1117" from-port="7" to-layer="1122" to-port="0" />
		<edge from-layer="1117" from-port="7" to-layer="1289" to-port="0" />
		<edge from-layer="1118" from-port="1" to-layer="1119" to-port="1" />
		<edge from-layer="1118" from-port="1" to-layer="1119" to-port="0" />
		<edge from-layer="1119" from-port="2" to-layer="1120" to-port="0" />
		<edge from-layer="1120" from-port="1" to-layer="1121" to-port="0" />
		<edge from-layer="1121" from-port="1" to-layer="1122" to-port="1" />
		<edge from-layer="1122" from-port="2" to-layer="1123" to-port="0" />
		<edge from-layer="1123" from-port="1" to-layer="1124" to-port="0" />
		<edge from-layer="1124" from-port="1" to-layer="1125" to-port="1" />
		<edge from-layer="1124" from-port="1" to-layer="1125" to-port="0" />
		<edge from-layer="1125" from-port="3" to-layer="1126" to-port="0" />
		<edge from-layer="1125" from-port="3" to-layer="1132" to-port="2" />
		<edge from-layer="1126" from-port="1" to-layer="1128" to-port="0" />
		<edge from-layer="1126" from-port="1" to-layer="1127" to-port="0" />
		<edge from-layer="1127" from-port="1" to-layer="1130" to-port="0" />
		<edge from-layer="1127" from-port="1" to-layer="1130" to-port="1" />
		<edge from-layer="1128" from-port="1" to-layer="1129" to-port="0" />
		<edge from-layer="1128" from-port="1" to-layer="1129" to-port="1" />
		<edge from-layer="1129" from-port="2" to-layer="1130" to-port="2" />
		<edge from-layer="1130" from-port="3" to-layer="1131" to-port="0" />
		<edge from-layer="1131" from-port="1" to-layer="1132" to-port="0" />
		<edge from-layer="1131" from-port="1" to-layer="1132" to-port="1" />
		<edge from-layer="1132" from-port="3" to-layer="1161" to-port="2" />
		<edge from-layer="1132" from-port="3" to-layer="1133" to-port="0" />
		<edge from-layer="1133" from-port="1" to-layer="1134" to-port="0" />
		<edge from-layer="1134" from-port="1" to-layer="1135" to-port="0" />
		<edge from-layer="1134" from-port="1" to-layer="1135" to-port="1" />
		<edge from-layer="1135" from-port="2" to-layer="1136" to-port="0" />
		<edge from-layer="1135" from-port="2" to-layer="1148" to-port="0" />
		<edge from-layer="1135" from-port="2" to-layer="1142" to-port="0" />
		<edge from-layer="1136" from-port="1" to-layer="1137" to-port="0" />
		<edge from-layer="1137" from-port="1" to-layer="1156" to-port="0" />
		<edge from-layer="1137" from-port="1" to-layer="1138" to-port="0" />
		<edge from-layer="1138" from-port="1" to-layer="1139" to-port="0" />
		<edge from-layer="1139" from-port="1" to-layer="1140" to-port="0" />
		<edge from-layer="1140" from-port="3" to-layer="1153" to-port="0" />
		<edge from-layer="1141" from-port="1" to-layer="1146" to-port="0" />
		<edge from-layer="1142" from-port="1" to-layer="1143" to-port="0" />
		<edge from-layer="1143" from-port="1" to-layer="1144" to-port="0" />
		<edge from-layer="1144" from-port="1" to-layer="1145" to-port="0" />
		<edge from-layer="1145" from-port="3" to-layer="1146" to-port="1" />
		<edge from-layer="1146" from-port="3" to-layer="1153" to-port="1" />
		<edge from-layer="1146" from-port="3" to-layer="1153" to-port="4" />
		<edge from-layer="1147" from-port="1" to-layer="1152" to-port="0" />
		<edge from-layer="1148" from-port="1" to-layer="1149" to-port="0" />
		<edge from-layer="1149" from-port="1" to-layer="1150" to-port="0" />
		<edge from-layer="1150" from-port="1" to-layer="1151" to-port="0" />
		<edge from-layer="1151" from-port="1" to-layer="1152" to-port="1" />
		<edge from-layer="1152" from-port="3" to-layer="1153" to-port="2" />
		<edge from-layer="1153" from-port="5" to-layer="1154" to-port="0" />
		<edge from-layer="1154" from-port="1" to-layer="1155" to-port="0" />
		<edge from-layer="1155" from-port="1" to-layer="1159" to-port="0" />
		<edge from-layer="1156" from-port="1" to-layer="1157" to-port="0" />
		<edge from-layer="1157" from-port="1" to-layer="1158" to-port="0" />
		<edge from-layer="1158" from-port="1" to-layer="1159" to-port="1" />
		<edge from-layer="1159" from-port="2" to-layer="1160" to-port="0" />
		<edge from-layer="1160" from-port="1" to-layer="1161" to-port="0" />
		<edge from-layer="1160" from-port="1" to-layer="1161" to-port="1" />
		<edge from-layer="1161" from-port="3" to-layer="1162" to-port="0" />
		<edge from-layer="1161" from-port="3" to-layer="1168" to-port="2" />
		<edge from-layer="1162" from-port="1" to-layer="1163" to-port="0" />
		<edge from-layer="1162" from-port="1" to-layer="1164" to-port="0" />
		<edge from-layer="1163" from-port="1" to-layer="1166" to-port="1" />
		<edge from-layer="1163" from-port="1" to-layer="1166" to-port="0" />
		<edge from-layer="1164" from-port="1" to-layer="1165" to-port="1" />
		<edge from-layer="1164" from-port="1" to-layer="1165" to-port="0" />
		<edge from-layer="1165" from-port="2" to-layer="1166" to-port="2" />
		<edge from-layer="1166" from-port="3" to-layer="1167" to-port="0" />
		<edge from-layer="1167" from-port="1" to-layer="1168" to-port="0" />
		<edge from-layer="1167" from-port="1" to-layer="1168" to-port="1" />
		<edge from-layer="1168" from-port="3" to-layer="1169" to-port="0" />
		<edge from-layer="1168" from-port="3" to-layer="1201" to-port="2" />
		<edge from-layer="1169" from-port="2" to-layer="1194" to-port="0" />
		<edge from-layer="1169" from-port="2" to-layer="1170" to-port="0" />
		<edge from-layer="1169" from-port="2" to-layer="1189" to-port="0" />
		<edge from-layer="1169" from-port="2" to-layer="1173" to-port="0" />
		<edge from-layer="1169" from-port="2" to-layer="1185" to-port="0" />
		<edge from-layer="1170" from-port="1" to-layer="1171" to-port="0" />
		<edge from-layer="1170" from-port="1" to-layer="1171" to-port="1" />
		<edge from-layer="1171" from-port="2" to-layer="1172" to-port="0" />
		<edge from-layer="1172" from-port="1" to-layer="1177" to-port="0" />
		<edge from-layer="1173" from-port="1" to-layer="1174" to-port="0" />
		<edge from-layer="1174" from-port="1" to-layer="1191" to-port="0" />
		<edge from-layer="1174" from-port="1" to-layer="1175" to-port="0" />
		<edge from-layer="1175" from-port="1" to-layer="1176" to-port="0" />
		<edge from-layer="1176" from-port="1" to-layer="1177" to-port="2" />
		<edge from-layer="1177" from-port="4" to-layer="1290" to-port="0" />
		<edge from-layer="1177" from-port="4" to-layer="1178" to-port="0" />
		<edge from-layer="1178" from-port="1" to-layer="1179" to-port="0" />
		<edge from-layer="1178" from-port="1" to-layer="1183" to-port="0" />
		<edge from-layer="1178" from-port="1" to-layer="1181" to-port="0" />
		<edge from-layer="1179" from-port="1" to-layer="1180" to-port="0" />
		<edge from-layer="1180" from-port="1" to-layer="1193" to-port="0" />
		<edge from-layer="1181" from-port="1" to-layer="1182" to-port="0" />
		<edge from-layer="1182" from-port="1" to-layer="1193" to-port="1" />
		<edge from-layer="1183" from-port="1" to-layer="1184" to-port="0" />
		<edge from-layer="1184" from-port="1" to-layer="1193" to-port="2" />
		<edge from-layer="1185" from-port="1" to-layer="1186" to-port="0" />
		<edge from-layer="1185" from-port="1" to-layer="1186" to-port="1" />
		<edge from-layer="1186" from-port="2" to-layer="1187" to-port="0" />
		<edge from-layer="1187" from-port="1" to-layer="1188" to-port="0" />
		<edge from-layer="1188" from-port="1" to-layer="1193" to-port="3" />
		<edge from-layer="1189" from-port="1" to-layer="1190" to-port="0" />
		<edge from-layer="1189" from-port="1" to-layer="1190" to-port="1" />
		<edge from-layer="1190" from-port="2" to-layer="1193" to-port="4" />
		<edge from-layer="1191" from-port="1" to-layer="1192" to-port="0" />
		<edge from-layer="1192" from-port="1" to-layer="1193" to-port="5" />
		<edge from-layer="1193" from-port="7" to-layer="1198" to-port="0" />
		<edge from-layer="1193" from-port="7" to-layer="1291" to-port="0" />
		<edge from-layer="1194" from-port="1" to-layer="1195" to-port="0" />
		<edge from-layer="1194" from-port="1" to-layer="1195" to-port="1" />
		<edge from-layer="1195" from-port="2" to-layer="1196" to-port="0" />
		<edge from-layer="1196" from-port="1" to-layer="1197" to-port="0" />
		<edge from-layer="1197" from-port="1" to-layer="1198" to-port="1" />
		<edge from-layer="1198" from-port="2" to-layer="1199" to-port="0" />
		<edge from-layer="1199" from-port="1" to-layer="1200" to-port="0" />
		<edge from-layer="1200" from-port="1" to-layer="1201" to-port="1" />
		<edge from-layer="1200" from-port="1" to-layer="1201" to-port="0" />
		<edge from-layer="1201" from-port="3" to-layer="1202" to-port="0" />
		<edge from-layer="1201" from-port="3" to-layer="1208" to-port="2" />
		<edge from-layer="1202" from-port="1" to-layer="1204" to-port="0" />
		<edge from-layer="1202" from-port="1" to-layer="1203" to-port="0" />
		<edge from-layer="1203" from-port="1" to-layer="1206" to-port="1" />
		<edge from-layer="1203" from-port="1" to-layer="1206" to-port="0" />
		<edge from-layer="1204" from-port="1" to-layer="1205" to-port="1" />
		<edge from-layer="1204" from-port="1" to-layer="1205" to-port="0" />
		<edge from-layer="1205" from-port="2" to-layer="1206" to-port="2" />
		<edge from-layer="1206" from-port="3" to-layer="1207" to-port="0" />
		<edge from-layer="1207" from-port="1" to-layer="1208" to-port="0" />
		<edge from-layer="1207" from-port="1" to-layer="1208" to-port="1" />
		<edge from-layer="1208" from-port="3" to-layer="1209" to-port="0" />
		<edge from-layer="1208" from-port="3" to-layer="1241" to-port="2" />
		<edge from-layer="1209" from-port="2" to-layer="1210" to-port="0" />
		<edge from-layer="1209" from-port="2" to-layer="1229" to-port="0" />
		<edge from-layer="1209" from-port="2" to-layer="1234" to-port="0" />
		<edge from-layer="1209" from-port="2" to-layer="1225" to-port="0" />
		<edge from-layer="1209" from-port="2" to-layer="1213" to-port="0" />
		<edge from-layer="1210" from-port="1" to-layer="1211" to-port="0" />
		<edge from-layer="1210" from-port="1" to-layer="1211" to-port="1" />
		<edge from-layer="1211" from-port="2" to-layer="1212" to-port="0" />
		<edge from-layer="1212" from-port="1" to-layer="1217" to-port="0" />
		<edge from-layer="1213" from-port="1" to-layer="1214" to-port="0" />
		<edge from-layer="1214" from-port="1" to-layer="1215" to-port="0" />
		<edge from-layer="1214" from-port="1" to-layer="1231" to-port="0" />
		<edge from-layer="1215" from-port="1" to-layer="1216" to-port="0" />
		<edge from-layer="1216" from-port="1" to-layer="1217" to-port="2" />
		<edge from-layer="1217" from-port="4" to-layer="1218" to-port="0" />
		<edge from-layer="1217" from-port="4" to-layer="1292" to-port="0" />
		<edge from-layer="1218" from-port="1" to-layer="1219" to-port="0" />
		<edge from-layer="1218" from-port="1" to-layer="1221" to-port="0" />
		<edge from-layer="1218" from-port="1" to-layer="1223" to-port="0" />
		<edge from-layer="1219" from-port="1" to-layer="1220" to-port="0" />
		<edge from-layer="1220" from-port="1" to-layer="1233" to-port="0" />
		<edge from-layer="1221" from-port="1" to-layer="1222" to-port="0" />
		<edge from-layer="1222" from-port="1" to-layer="1233" to-port="1" />
		<edge from-layer="1223" from-port="1" to-layer="1224" to-port="0" />
		<edge from-layer="1224" from-port="1" to-layer="1233" to-port="2" />
		<edge from-layer="1225" from-port="1" to-layer="1226" to-port="0" />
		<edge from-layer="1225" from-port="1" to-layer="1226" to-port="1" />
		<edge from-layer="1226" from-port="2" to-layer="1227" to-port="0" />
		<edge from-layer="1227" from-port="1" to-layer="1228" to-port="0" />
		<edge from-layer="1228" from-port="1" to-layer="1233" to-port="3" />
		<edge from-layer="1229" from-port="1" to-layer="1230" to-port="0" />
		<edge from-layer="1229" from-port="1" to-layer="1230" to-port="1" />
		<edge from-layer="1230" from-port="2" to-layer="1233" to-port="4" />
		<edge from-layer="1231" from-port="1" to-layer="1232" to-port="0" />
		<edge from-layer="1232" from-port="1" to-layer="1233" to-port="5" />
		<edge from-layer="1233" from-port="7" to-layer="1293" to-port="0" />
		<edge from-layer="1233" from-port="7" to-layer="1238" to-port="0" />
		<edge from-layer="1234" from-port="1" to-layer="1235" to-port="1" />
		<edge from-layer="1234" from-port="1" to-layer="1235" to-port="0" />
		<edge from-layer="1235" from-port="2" to-layer="1236" to-port="0" />
		<edge from-layer="1236" from-port="1" to-layer="1237" to-port="0" />
		<edge from-layer="1237" from-port="1" to-layer="1238" to-port="1" />
		<edge from-layer="1238" from-port="2" to-layer="1239" to-port="0" />
		<edge from-layer="1239" from-port="1" to-layer="1240" to-port="0" />
		<edge from-layer="1240" from-port="1" to-layer="1241" to-port="0" />
		<edge from-layer="1240" from-port="1" to-layer="1241" to-port="1" />
		<edge from-layer="1241" from-port="3" to-layer="1242" to-port="0" />
		<edge from-layer="1241" from-port="3" to-layer="1248" to-port="2" />
		<edge from-layer="1242" from-port="1" to-layer="1244" to-port="0" />
		<edge from-layer="1242" from-port="1" to-layer="1243" to-port="0" />
		<edge from-layer="1243" from-port="1" to-layer="1246" to-port="1" />
		<edge from-layer="1243" from-port="1" to-layer="1246" to-port="0" />
		<edge from-layer="1244" from-port="1" to-layer="1245" to-port="1" />
		<edge from-layer="1244" from-port="1" to-layer="1245" to-port="0" />
		<edge from-layer="1245" from-port="2" to-layer="1246" to-port="2" />
		<edge from-layer="1246" from-port="3" to-layer="1247" to-port="0" />
		<edge from-layer="1247" from-port="1" to-layer="1248" to-port="0" />
		<edge from-layer="1247" from-port="1" to-layer="1248" to-port="1" />
		<edge from-layer="1248" from-port="3" to-layer="1328" to-port="2" />
		<edge from-layer="1248" from-port="3" to-layer="1294" to-port="0" />
		<edge from-layer="1248" from-port="3" to-layer="1249" to-port="4" />
		<edge from-layer="1249" from-port="5" to-layer="1250" to-port="0" />
		<edge from-layer="1250" from-port="1" to-layer="1251" to-port="0" />
		<edge from-layer="1251" from-port="1" to-layer="1420" to-port="0" />
		<edge from-layer="1252" from-port="1" to-layer="1419" to-port="0" />
		<edge from-layer="1253" from-port="1" to-layer="1418" to-port="0" />
		<edge from-layer="1254" from-port="1" to-layer="1417" to-port="0" />
		<edge from-layer="1255" from-port="1" to-layer="1416" to-port="0" />
		<edge from-layer="1256" from-port="1" to-layer="1415" to-port="0" />
		<edge from-layer="1257" from-port="1" to-layer="1414" to-port="0" />
		<edge from-layer="1258" from-port="1" to-layer="1413" to-port="0" />
		<edge from-layer="1259" from-port="1" to-layer="1412" to-port="0" />
		<edge from-layer="1260" from-port="1" to-layer="1411" to-port="0" />
		<edge from-layer="1261" from-port="1" to-layer="1410" to-port="0" />
		<edge from-layer="1262" from-port="1" to-layer="1409" to-port="0" />
		<edge from-layer="1263" from-port="1" to-layer="1408" to-port="0" />
		<edge from-layer="1264" from-port="1" to-layer="1407" to-port="0" />
		<edge from-layer="1265" from-port="1" to-layer="1406" to-port="0" />
		<edge from-layer="1266" from-port="1" to-layer="1405" to-port="0" />
		<edge from-layer="1267" from-port="1" to-layer="1404" to-port="0" />
		<edge from-layer="1268" from-port="1" to-layer="1403" to-port="0" />
		<edge from-layer="1269" from-port="1" to-layer="1402" to-port="0" />
		<edge from-layer="1270" from-port="1" to-layer="1401" to-port="0" />
		<edge from-layer="1271" from-port="1" to-layer="1400" to-port="0" />
		<edge from-layer="1272" from-port="1" to-layer="1399" to-port="0" />
		<edge from-layer="1273" from-port="1" to-layer="1398" to-port="0" />
		<edge from-layer="1274" from-port="1" to-layer="1397" to-port="0" />
		<edge from-layer="1275" from-port="1" to-layer="1396" to-port="0" />
		<edge from-layer="1276" from-port="1" to-layer="1395" to-port="0" />
		<edge from-layer="1277" from-port="1" to-layer="1394" to-port="0" />
		<edge from-layer="1278" from-port="1" to-layer="1393" to-port="0" />
		<edge from-layer="1279" from-port="1" to-layer="1392" to-port="0" />
		<edge from-layer="1280" from-port="1" to-layer="1391" to-port="0" />
		<edge from-layer="1281" from-port="1" to-layer="1390" to-port="0" />
		<edge from-layer="1282" from-port="1" to-layer="1389" to-port="0" />
		<edge from-layer="1283" from-port="1" to-layer="1388" to-port="0" />
		<edge from-layer="1284" from-port="1" to-layer="1387" to-port="0" />
		<edge from-layer="1285" from-port="1" to-layer="1386" to-port="0" />
		<edge from-layer="1286" from-port="1" to-layer="1385" to-port="0" />
		<edge from-layer="1287" from-port="1" to-layer="1384" to-port="0" />
		<edge from-layer="1288" from-port="1" to-layer="1383" to-port="0" />
		<edge from-layer="1289" from-port="1" to-layer="1382" to-port="0" />
		<edge from-layer="1290" from-port="1" to-layer="1381" to-port="0" />
		<edge from-layer="1291" from-port="1" to-layer="1380" to-port="0" />
		<edge from-layer="1292" from-port="1" to-layer="1379" to-port="0" />
		<edge from-layer="1293" from-port="1" to-layer="1378" to-port="0" />
		<edge from-layer="1294" from-port="2" to-layer="1295" to-port="0" />
		<edge from-layer="1294" from-port="2" to-layer="1298" to-port="0" />
		<edge from-layer="1294" from-port="2" to-layer="1311" to-port="0" />
		<edge from-layer="1294" from-port="2" to-layer="1315" to-port="0" />
		<edge from-layer="1294" from-port="2" to-layer="1321" to-port="0" />
		<edge from-layer="1295" from-port="1" to-layer="1296" to-port="0" />
		<edge from-layer="1295" from-port="1" to-layer="1296" to-port="1" />
		<edge from-layer="1296" from-port="2" to-layer="1297" to-port="0" />
		<edge from-layer="1297" from-port="1" to-layer="1302" to-port="0" />
		<edge from-layer="1298" from-port="1" to-layer="1299" to-port="0" />
		<edge from-layer="1299" from-port="1" to-layer="1300" to-port="0" />
		<edge from-layer="1299" from-port="1" to-layer="1317" to-port="0" />
		<edge from-layer="1300" from-port="1" to-layer="1301" to-port="0" />
		<edge from-layer="1301" from-port="1" to-layer="1302" to-port="2" />
		<edge from-layer="1302" from-port="4" to-layer="1304" to-port="0" />
		<edge from-layer="1302" from-port="4" to-layer="1303" to-port="0" />
		<edge from-layer="1303" from-port="1" to-layer="1377" to-port="0" />
		<edge from-layer="1304" from-port="1" to-layer="1305" to-port="0" />
		<edge from-layer="1304" from-port="1" to-layer="1307" to-port="0" />
		<edge from-layer="1304" from-port="1" to-layer="1309" to-port="0" />
		<edge from-layer="1305" from-port="1" to-layer="1306" to-port="0" />
		<edge from-layer="1306" from-port="1" to-layer="1319" to-port="0" />
		<edge from-layer="1307" from-port="1" to-layer="1308" to-port="0" />
		<edge from-layer="1308" from-port="1" to-layer="1319" to-port="1" />
		<edge from-layer="1309" from-port="1" to-layer="1310" to-port="0" />
		<edge from-layer="1310" from-port="1" to-layer="1319" to-port="2" />
		<edge from-layer="1311" from-port="1" to-layer="1312" to-port="0" />
		<edge from-layer="1311" from-port="1" to-layer="1312" to-port="1" />
		<edge from-layer="1312" from-port="2" to-layer="1313" to-port="0" />
		<edge from-layer="1313" from-port="1" to-layer="1314" to-port="0" />
		<edge from-layer="1314" from-port="1" to-layer="1319" to-port="3" />
		<edge from-layer="1315" from-port="1" to-layer="1316" to-port="0" />
		<edge from-layer="1315" from-port="1" to-layer="1316" to-port="1" />
		<edge from-layer="1316" from-port="2" to-layer="1319" to-port="4" />
		<edge from-layer="1317" from-port="1" to-layer="1318" to-port="0" />
		<edge from-layer="1318" from-port="1" to-layer="1319" to-port="5" />
		<edge from-layer="1319" from-port="7" to-layer="1325" to-port="0" />
		<edge from-layer="1319" from-port="7" to-layer="1320" to-port="0" />
		<edge from-layer="1320" from-port="1" to-layer="1376" to-port="0" />
		<edge from-layer="1321" from-port="1" to-layer="1322" to-port="1" />
		<edge from-layer="1321" from-port="1" to-layer="1322" to-port="0" />
		<edge from-layer="1322" from-port="2" to-layer="1323" to-port="0" />
		<edge from-layer="1323" from-port="1" to-layer="1324" to-port="0" />
		<edge from-layer="1324" from-port="1" to-layer="1325" to-port="1" />
		<edge from-layer="1325" from-port="2" to-layer="1326" to-port="0" />
		<edge from-layer="1326" from-port="1" to-layer="1327" to-port="0" />
		<edge from-layer="1327" from-port="1" to-layer="1328" to-port="1" />
		<edge from-layer="1327" from-port="1" to-layer="1328" to-port="0" />
		<edge from-layer="1328" from-port="3" to-layer="1335" to-port="2" />
		<edge from-layer="1328" from-port="3" to-layer="1329" to-port="0" />
		<edge from-layer="1329" from-port="1" to-layer="1331" to-port="0" />
		<edge from-layer="1329" from-port="1" to-layer="1330" to-port="0" />
		<edge from-layer="1330" from-port="1" to-layer="1333" to-port="1" />
		<edge from-layer="1330" from-port="1" to-layer="1333" to-port="0" />
		<edge from-layer="1331" from-port="1" to-layer="1332" to-port="1" />
		<edge from-layer="1331" from-port="1" to-layer="1332" to-port="0" />
		<edge from-layer="1332" from-port="2" to-layer="1333" to-port="2" />
		<edge from-layer="1333" from-port="3" to-layer="1334" to-port="0" />
		<edge from-layer="1334" from-port="1" to-layer="1335" to-port="1" />
		<edge from-layer="1334" from-port="1" to-layer="1335" to-port="0" />
		<edge from-layer="1335" from-port="3" to-layer="1336" to-port="0" />
		<edge from-layer="1335" from-port="3" to-layer="1364" to-port="2" />
		<edge from-layer="1336" from-port="1" to-layer="1337" to-port="0" />
		<edge from-layer="1337" from-port="1" to-layer="1338" to-port="1" />
		<edge from-layer="1337" from-port="1" to-layer="1338" to-port="0" />
		<edge from-layer="1338" from-port="2" to-layer="1345" to-port="0" />
		<edge from-layer="1338" from-port="2" to-layer="1339" to-port="0" />
		<edge from-layer="1338" from-port="2" to-layer="1351" to-port="0" />
		<edge from-layer="1339" from-port="1" to-layer="1340" to-port="0" />
		<edge from-layer="1340" from-port="1" to-layer="1359" to-port="0" />
		<edge from-layer="1340" from-port="1" to-layer="1341" to-port="0" />
		<edge from-layer="1341" from-port="1" to-layer="1342" to-port="0" />
		<edge from-layer="1342" from-port="1" to-layer="1343" to-port="0" />
		<edge from-layer="1343" from-port="3" to-layer="1356" to-port="0" />
		<edge from-layer="1344" from-port="1" to-layer="1349" to-port="0" />
		<edge from-layer="1345" from-port="1" to-layer="1346" to-port="0" />
		<edge from-layer="1346" from-port="1" to-layer="1347" to-port="0" />
		<edge from-layer="1347" from-port="1" to-layer="1348" to-port="0" />
		<edge from-layer="1348" from-port="3" to-layer="1349" to-port="1" />
		<edge from-layer="1349" from-port="3" to-layer="1356" to-port="4" />
		<edge from-layer="1349" from-port="3" to-layer="1356" to-port="1" />
		<edge from-layer="1350" from-port="1" to-layer="1355" to-port="0" />
		<edge from-layer="1351" from-port="1" to-layer="1352" to-port="0" />
		<edge from-layer="1352" from-port="1" to-layer="1353" to-port="0" />
		<edge from-layer="1353" from-port="1" to-layer="1354" to-port="0" />
		<edge from-layer="1354" from-port="1" to-layer="1355" to-port="1" />
		<edge from-layer="1355" from-port="3" to-layer="1356" to-port="2" />
		<edge from-layer="1356" from-port="5" to-layer="1357" to-port="0" />
		<edge from-layer="1357" from-port="1" to-layer="1358" to-port="0" />
		<edge from-layer="1358" from-port="1" to-layer="1362" to-port="0" />
		<edge from-layer="1359" from-port="1" to-layer="1360" to-port="0" />
		<edge from-layer="1360" from-port="1" to-layer="1361" to-port="0" />
		<edge from-layer="1361" from-port="1" to-layer="1362" to-port="1" />
		<edge from-layer="1362" from-port="2" to-layer="1363" to-port="0" />
		<edge from-layer="1363" from-port="1" to-layer="1364" to-port="1" />
		<edge from-layer="1363" from-port="1" to-layer="1364" to-port="0" />
		<edge from-layer="1364" from-port="3" to-layer="1371" to-port="2" />
		<edge from-layer="1364" from-port="3" to-layer="1365" to-port="0" />
		<edge from-layer="1365" from-port="1" to-layer="1367" to-port="0" />
		<edge from-layer="1365" from-port="1" to-layer="1366" to-port="0" />
		<edge from-layer="1366" from-port="1" to-layer="1369" to-port="0" />
		<edge from-layer="1366" from-port="1" to-layer="1369" to-port="1" />
		<edge from-layer="1367" from-port="1" to-layer="1368" to-port="0" />
		<edge from-layer="1367" from-port="1" to-layer="1368" to-port="1" />
		<edge from-layer="1368" from-port="2" to-layer="1369" to-port="2" />
		<edge from-layer="1369" from-port="3" to-layer="1370" to-port="0" />
		<edge from-layer="1370" from-port="1" to-layer="1371" to-port="0" />
		<edge from-layer="1370" from-port="1" to-layer="1371" to-port="1" />
		<edge from-layer="1371" from-port="3" to-layer="1372" to-port="0" />
		<edge from-layer="1372" from-port="1" to-layer="1373" to-port="0" />
		<edge from-layer="1373" from-port="1" to-layer="1374" to-port="0" />
		<edge from-layer="1373" from-port="1" to-layer="1374" to-port="1" />
		<edge from-layer="1374" from-port="2" to-layer="1375" to-port="0" />
	</edges>
	<rt_info />
</net>
